deploy/pre_train/g1/policy_lstm_1.pt (torch, 143697 bytes, 10 tensors)

hidden_state f4 [1, 1, 64]
000000 00 00 00 00 00 00 00 00 00 00 00 00 00 00 00 00
       0.0 0.0 0.0 0.0
000010 00 00 00 00 00 00 00 00 00 00 00 00 00 00 00 00
       0.0 0.0 0.0 0.0
000020 00 00 00 00 00 00 00 00 00 00 00 00 00 00 00 00
       0.0 0.0 0.0 0.0
000030 00 00 00 00 00 00 00 00 00 00 00 00 00 00 00 00
       0.0 0.0 0.0 0.0
000040 00 00 00 00 00 00 00 00 00 00 00 00 00 00 00 00
       0.0 0.0 0.0 0.0
000050 00 00 00 00 00 00 00 00 00 00 00 00 00 00 00 00
       0.0 0.0 0.0 0.0
000060 00 00 00 00 00 00 00 00 00 00 00 00 00 00 00 00
       0.0 0.0 0.0 0.0
000070 00 00 00 00 00 00 00 00 00 00 00 00 00 00 00 00
       0.0 0.0 0.0 0.0
000080 00 00 00 00 00 00 00 00 00 00 00 00 00 00 00 00
       0.0 0.0 0.0 0.0
000090 00 00 00 00 00 00 00 00 00 00 00 00 00 00 00 00
       0.0 0.0 0.0 0.0
0000a0 00 00 00 00 00 00 00 00 00 00 00 00 00 00 00 00
       0.0 0.0 0.0 0.0
0000b0 00 00 00 00 00 00 00 00 00 00 00 00 00 00 00 00
       0.0 0.0 0.0 0.0
0000c0 00 00 00 00 00 00 00 00 00 00 00 00 00 00 00 00
       0.0 0.0 0.0 0.0
0000d0 00 00 00 00 00 00 00 00 00 00 00 00 00 00 00 00
       0.0 0.0 0.0 0.0
0000e0 00 00 00 00 00 00 00 00 00 00 00 00 00 00 00 00
       0.0 0.0 0.0 0.0
0000f0 00 00 00 00 00 00 00 00 00 00 00 00 00 00 00 00
       0.0 0.0 0.0 0.0

cell_state f4 [1, 1, 64]
000000 00 00 00 00 00 00 00 00 00 00 00 00 00 00 00 00
       0.0 0.0 0.0 0.0
000010 00 00 00 00 00 00 00 00 00 00 00 00 00 00 00 00
       0.0 0.0 0.0 0.0
000020 00 00 00 00 00 00 00 00 00 00 00 00 00 00 00 00
       0.0 0.0 0.0 0.0
000030 00 00 00 00 00 00 00 00 00 00 00 00 00 00 00 00
       0.0 0.0 0.0 0.0
000040 00 00 00 00 00 00 00 00 00 00 00 00 00 00 00 00
       0.0 0.0 0.0 0.0
000050 00 00 00 00 00 00 00 00 00 00 00 00 00 00 00 00
       0.0 0.0 0.0 0.0
000060 00 00 00 00 00 00 00 00 00 00 00 00 00 00 00 00
       0.0 0.0 0.0 0.0
000070 00 00 00 00 00 00 00 00 00 00 00 00 00 00 00 00
       0.0 0.0 0.0 0.0
000080 00 00 00 00 00 00 00 00 00 00 00 00 00 00 00 00
       0.0 0.0 0.0 0.0
000090 00 00 00 00 00 00 00 00 00 00 00 00 00 00 00 00
       0.0 0.0 0.0 0.0
0000a0 00 00 00 00 00 00 00 00 00 00 00 00 00 00 00 00
       0.0 0.0 0.0 0.0
0000b0 00 00 00 00 00 00 00 00 00 00 00 00 00 00 00 00
       0.0 0.0 0.0 0.0
0000c0 00 00 00 00 00 00 00 00 00 00 00 00 00 00 00 00
       0.0 0.0 0.0 0.0
0000d0 00 00 00 00 00 00 00 00 00 00 00 00 00 00 00 00
       0.0 0.0 0.0 0.0
0000e0 00 00 00 00 00 00 00 00 00 00 00 00 00 00 00 00
       0.0 0.0 0.0 0.0
0000f0 00 00 00 00 00 00 00 00 00 00 00 00 00 00 00 00
       0.0 0.0 0.0 0.0

weight f4 [32, 64]
000000 24 4c bf 3d 51 48 fb bc d1 57 8e bd bb ff e0 3e
       0.093406945 -0.030674132 -0.069503434 0.43945107
000010 e5 3b bf 3e f3 9b fc 3e 81 e5 66 3d f6 f8 f8 3d
       0.37350383 0.4933773 0.056371216 0.121568605
000020 ba 36 d6 3e a2 99 0d 3f 4b fd ca 3e 40 b2 8d 3d
       0.41838628 0.5531255 0.39646372 0.06918764
000030 ef d8 59 be 55 57 5e 3e 5c df 43 bf 63 69 be 3d
       -0.2127416 0.21713002 -0.76512694 0.09297445
000040 d4 00 3a be 50 b6 20 3f d8 5e e7 3d 8f de 90 3d
       -0.18164378 0.62778187 0.11297387 0.070737
000050 f6 5f 8a 3e cc f0 25 be 5f 44 a8 be 6e 45 64 be
       0.27026337 -0.16205138 -0.32864663 -0.2229211
000060 b3 43 b7 3e ee fd 3b 3e 26 6d c6 be 19 ff ab 3e
       0.35793838 0.18358585 -0.3875515 0.33593062
000070 61 86 00 bf bf 52 c3 be 00 24 02 bd f0 48 6e 3f
       -0.50205046 -0.38149068 -0.031772614 0.93080044
000080 8e 69 b3 3e 8d ec 29 bf e7 94 e3 3e 7f 41 92 be
       0.3504147 -0.6637657 0.4444954 -0.28565595
000090 70 8c 11 3e 57 c9 63 3f dc 07 3e be e6 81 07 be
       0.14213729 0.88979095 -0.18557686 -0.13233146
0000a0 fd 86 df 3d 07 8f fc bc ab 7a a8 be e1 8d d1 3d
       0.10914419 -0.03082992 -0.32906088 0.102321394
0000b0 42 15 c6 be ec aa 0c 3f b3 bc 43 be 18 80 d8 be
       -0.38688093 0.54948306 -0.19114952 -0.42285228
0000c0 75 b8 a2 3e 8b 0a f6 3e 95 b3 13 3e db ff 47 3e
       0.31781355 0.4805492 0.14423974 0.19531195
0000d0 fe db 9d be ce 0e bf 3d e4 0a b0 3e 82 78 d3 bd
       -0.30831903 0.09328996 0.3438331 -0.103257194
0000e0 d2 e6 1b bd 1c 7e 4f be 5c 74 f1 3d c7 1f 1d bc
       -0.038061924 -0.2026295 0.11789772 -0.009590096
0000f0 a3 64 23 bf 11 6a dd 3e d4 c9 ab 3e 44 46 f5 3e
       -0.63825434 0.43244985 0.3355242 0.4790517
000100 67 36 9d bf 0d 78 15 3d cb 27 f9 3e 8c 14 84 3e
       -1.2282227 0.036491442 0.48663172 0.25796926
000110 5d 73 df bd 19 52 43 bf 46 f8 4a be b8 ad 39 bf
       -0.10910676 -0.76297146 -0.19821271 -0.725307
000120 77 f0 28 be 25 0c c6 be 7c a6 c7 3d 38 86 cc 3d
       -0.1649798 -0.3868114 0.09748551 0.09986538
000130 10 6d 17 bf 80 c3 e3 3e 96 e6 4e be 73 66 5c bf
       -0.5915079 0.44485092 -0.20205149 -0.86093825
000140 46 88 aa 3e b0 c6 2b 3f 5a d8 31 3f c4 90 51 be
       0.33307093 0.6710005 0.6947075 -0.2046538
000150 a2 0d 42 bf f0 0a ef 3e 1c d5 88 be 22 6c ed be
       -0.7580205 0.46688032 -0.2672509 -0.4637156
000160 da c0 e0 3e 7d 12 fb 3d dc d4 6f be 9a 11 80 3c
       0.43897134 0.12259386 -0.23421043 0.015633393
000170 b6 8e 52 be ab 87 85 bd 6f 76 08 3e 42 c8 b9 3e
       -0.20562252 -0.06520017 0.13326429 0.36285597
000180 b7 65 8c 3e 92 9c 3e 3f 41 37 39 3e 50 dc 81 be
       0.27421352 0.7445766 0.18087484 -0.25363398
000190 f2 4b 9d bd 27 f8 d4 3e 23 7a a7 3e 63 84 29 bf
       -0.07680501 0.41595575 0.3271037 -0.6621763
0001a0 ee 16 70 bf 97 5f 10 3e 33 11 ca 3e ba 0d a7 3e
       -0.9378499 0.14098965 0.39466247 0.3262766
0001b0 cb 32 f3 be dc 3a 2a bf a2 58 b7 3f a1 55 83 3e
       -0.4749969 -0.6649606 1.4323924 0.25651267
0001c0 9d 71 e8 3e 58 f3 08 bf 13 ad b7 bf 11 48 1f 3e
       0.4539918 -0.53496313 -1.4349693 0.15554835
0001d0 c8 df b5 3e b4 b9 b6 3b da a4 1a 3f 71 2b fc be
       0.35522294 0.0055763368 0.60407794 -0.49251893
0001e0 2e 8f 00 be ad 56 22 bb 40 75 e1 3d 3e eb 84 3e
       -0.12554619 -0.00247709 0.11008692 0.25960726
0001f0 7b 22 f4 be a2 68 61 3c d0 e8 59 3d 0b 8f e1 be
       -0.47682557 0.013757857 0.053200543 -0.44054446
000200 12 cb ad 3f 90 65 dd bb 87 5d 60 bf 0b ad 56 bd
       1.3577597 -0.006756492 -0.8764271 -0.05241112
000210 2a af 21 3d 80 0d ea bd 13 c2 15 be 70 c8 e6 be
       0.03947369 -0.11428356 -0.14624815 -0.45074797
000220 f0 de fd 3e 84 3c a7 be 9e 55 b8 3d 58 33 c3 be
       0.4958415 -0.32663357 0.09000705 -0.3812511
000230 aa 0c 50 be 51 c3 88 bd d5 85 1b 3e 62 e1 dd 3e
       -0.20317331 -0.06677879 0.15187772 0.43336016
000240 46 ef 93 be 55 5b 2d bf f9 40 50 3e 39 9c 07 3d
       -0.2889349 -0.67717487 0.20337285 0.03310797
000250 2e 59 84 3e 4c 5b cf bd 91 27 0f 3f 69 12 ea 3e
       0.2584929 -0.10124835 0.5591975 0.4571717
000260 cb 90 e5 be 7d c5 c6 3e b7 85 43 bf 76 0b 2e 3f
       -0.4483703 0.38822547 -0.7637591 0.6798624
000270 d1 c5 b1 3d 26 f0 92 b9 38 d9 23 3f 2b f0 c1 be
       0.086803086 -0.00028026215 0.64003325 -0.37878546
000280 dd 88 bd be d2 08 3e 3f 7c de a3 be d3 1e e1 bc
       -0.3701848 0.7423221 -0.3200568 -0.027480518
000290 a1 b2 a5 3d 1b b0 a3 be 83 5a 3f be 8a 22 a5 bf
       0.080907114 -0.31970295 -0.18686871 -1.2901165
0002a0 29 7e 22 bf 2b 46 96 bf 5b 31 51 bf 22 78 b0 3e
       -0.63473755 -1.1740164 -0.81715935 0.34466654
0002b0 27 a5 4c be a3 53 fa be 0b 81 ee bd fc 51 0f bf
       -0.19984876 -0.48891935 -0.11645707 -0.55984473
0002c0 3a 5c 34 bd f2 d7 c2 be 79 1f a5 3e 47 a9 10 bf
       -0.044033267 -0.38055378 0.32250574 -0.56508297
0002d0 9b 33 de 3d 36 59 77 bd 2a b0 ab 3e 25 a3 b2 bd
       0.10849687 -0.060387813 0.3353284 -0.087225236
0002e0 81 ca 88 be 5e 2e 71 3e a9 05 19 3f 5c 13 c0 3d
       -0.26716998 0.23552844 0.5977426 0.093786925
0002f0 bc 18 ce 3e c5 78 1c bf 16 4a ee be 4d aa 8d be
       0.40253246 -0.6112178 -0.46540898 -0.27668992
000300 8e 51 6d 3e a9 f6 5c be 65 76 60 3e d5 dd 0f 3f
       0.23175642 -0.21578468 0.21920164 0.56197864
000310 6b e4 8f bd 51 71 b0 3e fa 79 79 bf ac 4b 1d be
       -0.07025989 0.34461454 -0.97451746 -0.15360898
000320 5d 50 1e 3f 9d ac 6b be 90 8c 3e bf 62 e1 19 3f
       0.61841375 -0.23015065 -0.7443323 0.6010953
000330 13 3f 9d bd c2 39 23 3e ad b5 e5 be fc 41 95 bf
       -0.07678046 0.15940002 -0.4486517 -1.1660762
000340 db fb 2a be 1a d8 93 be 85 26 83 be 69 99 ed be
       -0.16697638 -0.2887581 -0.25615326 -0.46406105
000350 c3 97 cd 3e cb d3 c0 3d a9 60 13 bf 9c b3 0d bd
       0.40154848 0.09415396 -0.57569367 -0.034595117
000360 c2 93 82 3d 1b a0 46 bf f5 06 04 bc 49 15 07 3d
       0.06375839 -0.7758805 -0.008058299 0.032979283
000370 ce b5 ce 3b 18 c1 d0 3d 8a af 54 bf 6c 98 23 be
       0.006308294 0.1019308 -0.8308035 -0.15976113
000380 14 02 f7 3e f5 dd 08 3f 8b 9b c7 bd ce 78 17 3e
       0.48243773 0.5346368 -0.09746464 0.14792177
000390 d7 40 c3 bf 62 2a 89 3c 94 33 9d 3e aa 44 96 3e
       -1.5254163 0.016743843 0.30703413 0.29349262
0003a0 ae 65 27 3d 33 0c 02 3f fc 59 ec be 8a fc d7 3e
       0.040868454 0.50799865 -0.46162403 0.4218486
0003b0 e9 cc 20 bf fa 04 9f 3e c8 1a 84 bd 4c 26 04 bc
       -0.6281267 0.31058484 -0.064504206 -0.008065771
0003c0 c6 0c 0d bf 27 02 e9 3e 1b cc 97 bf ca 68 0f 3f
       -0.55097616 0.45509455 -1.1859163 0.5601927
0003d0 c5 a0 d9 be d8 7d f3 bd 28 a8 31 bf f0 35 28 3f
       -0.4250547 -0.11889237 -0.6939721 0.657073
0003e0 cf 7e 61 3f 10 aa 15 bf 97 6b d4 be c5 57 b8 be
       0.8808412 -0.5846262 -0.41488335 -0.36004463
0003f0 3f 88 45 be c7 4b 25 be 18 a9 25 3f 9c 6a 18 3f
       -0.19290255 -0.16142188 0.6471114 0.59537673

bias f4 [32]
000000 b4 f1 1c 3d 2e 50 2c be 43 e6 d4 bd 0b b3 58 be
       0.038316444 -0.16827461 -0.103954814 -0.2116205
000010 cd 90 11 bd a9 12 c5 be 0b 8d de bc 65 44 f7 3c
       -0.035538483 -0.384908 -0.027166864 0.03018398
000020 f6 2e d3 bd a8 3f 81 be 8d 08 23 bc 5b a9 a1 3c
       -0.103116915 -0.25243878 -0.009950769 0.019734075
000030 3f 08 00 bf 8c 37 83 3c 3b 15 00 bd 48 6e 68 3e
       -0.5001258 0.016017698 -0.031270247 0.22698319
000040 4b fb a1 be 1e 1e 0f be c5 1b d7 3c 6c 99 74 be
       -0.31637034 -0.13976333 0.026258359 -0.23886651
000050 fa 85 83 be da 33 87 3e 77 53 fd ba 70 f3 05 be
       -0.25688154 0.26406747 -0.0019327243 -0.13081145
000060 65 00 5b be f3 5c e5 bd af 47 d3 bc e3 7b 6b be
       -0.21386869 -0.11199369 -0.025791017 -0.22996478
000070 f7 7f 2a bd 21 c6 2c 3e a9 80 c0 bd 58 08 57 bc
       -0.041625943 0.16872455 -0.0939954 -0.013124548

weight f4 [12, 32]
000000 d3 64 16 3d 2e 77 b5 3e 72 c3 89 3d 5a 2f 4e bd
       0.036717247 0.3544249 0.06726731 -0.050338127
000010 71 c6 69 3e db c4 9c bd dc 27 a2 be a0 73 09 3f
       0.22829606 -0.07654735 -0.31671035 0.53692055
000020 42 f3 63 be f2 0f 6e be e0 3d 29 3d 87 50 39 3e
       -0.22260764 -0.2324827 0.041318774 0.18097125
000030 d3 c4 c5 be d5 52 9f 3d 87 42 45 be 63 a8 a3 bd
       -0.38626727 0.07779471 -0.1926366 -0.079911016
000040 01 70 b9 be 7b 44 aa be 63 ed 5d bd 75 fb 6d be
       -0.36218265 -0.3325537 -0.054181468 -0.23240454
000050 dd 2c a0 be dd 03 b2 be 30 62 0a bb d3 a2 48 3d
       -0.31284228 -0.34768572 -0.0021115653 0.048983406
000060 42 e2 bb 3d ee 19 89 3e 36 9c 74 ba cf fb a8 3e
       0.09174015 0.26777595 -0.00093311386 0.33004615
000070 38 9d 82 3d 42 54 c4 be 89 ab ba 3e 40 48 3e 3e
       0.06377643 -0.38345534 0.36458996 0.18582249
000080 22 92 29 be ee 7d 86 3e df 8a 5a 3e 0d 8e 74 be
       -0.16559651 0.26267952 0.21342038 -0.23882313
000090 a9 9e 7e bd 47 6e d4 bd e1 fd ea bd 27 e0 92 3e
       -0.06216303 -0.10372596 -0.11474205 0.2868664
0000a0 ac 1d fc bd e8 ec f6 bd 49 1d 23 3e c4 35 cb 3d
       -0.12310347 -0.12056905 0.1592914 0.09922364
0000b0 70 c8 95 be d0 aa db bd 28 77 33 3a e3 22 7b 3e
       -0.29254484 -0.10725939 0.0006846064 0.24525027
0000c0 b5 93 e6 3b ce 54 27 3d 9d ff f8 bd e6 28 5e be
       0.007036651 0.04085236 -0.12158129 -0.21695289
0000d0 df 46 81 be d0 2e 4f 3f ac bf 76 3e 0e 15 a3 3e
       -0.25249383 0.80930805 0.24096555 0.31852
0000e0 de 31 7c be 99 54 42 3e 69 5c 40 3d ab 25 5b be
       -0.24628398 0.18977584 0.04696313 -0.21401088
0000f0 9a 4d d1 bd 19 dd fd 3e bb b5 5b 3d 46 40 c6 be
       -0.102198794 0.49582747 0.05364011 -0.38720912
000100 ec c5 9a 3d d5 18 35 3e a2 59 82 be e6 85 fd bc
       0.07557282 0.17685254 -0.2545901 -0.030947637
000110 94 d8 85 bd 75 88 57 bd f0 a5 02 bd b7 59 8f bd
       -0.065354496 -0.05262037 -0.03189653 -0.069995336
000120 3a a9 24 be 93 e8 e0 3e 69 19 9d bd 69 ab 33 be
       -0.1608018 0.4392744 -0.07670862 -0.17545857
000130 7b 29 18 bd d8 e0 e0 be ba 82 52 3d 22 78 58 be
       -0.037148934 -0.43921542 0.0513942 -0.21139577
000140 6b 8c 79 3e 0e 2a 66 3d a0 6a 14 bd 1e de 61 3e
       0.24369971 0.05619245 -0.036234498 0.22057387
000150 88 c8 92 3d ff 96 97 bd 66 54 fb bd 13 86 4a be
       0.071671546 -0.07401847 -0.12271957 -0.19777708
000160 ce b3 06 3c 4d 75 58 3d 3a 80 fb 3b fc 14 c7 3d
       0.00822158 0.05284624 0.007675198 0.09720799
000170 5a 9e 40 be 25 66 53 be 18 30 ab 3d 61 b6 d8 3d
       -0.18810406 -0.20644434 0.083587825 0.10581661
000180 2a fe 96 3e 41 8d ce be f1 b2 96 3e 0a 2d 21 3e
       0.29490787 -0.40342143 0.29433396 0.15739837
000190 35 2d 55 bd 91 3c 48 be 72 8f 49 be bc dc 80 3e
       -0.052045066 -0.19554354 -0.19683626 0.25168407
0001a0 c8 8c 9e be c2 3c d8 bd 3f 0c 2f be a2 ac d4 bd
       -0.30966783 -0.10558464 -0.17094515 -0.103844896
0001b0 07 06 d6 3d 51 08 70 3d 09 a1 b2 3d ba 4a 20 3f
       0.104503684 0.05860168 0.08722121 0.62614024
0001c0 be 2b 28 3e 66 ba 66 be 60 a0 3b 3e 46 74 9c 3c
       0.16422936 -0.22532043 0.18322897 0.019098412
0001d0 72 9d 0a bb 80 63 c8 bd 43 d6 ac bc b0 85 e3 bd
       -0.0021150974 -0.09784603 -0.021098262 -0.11109483
0001e0 6e f1 e2 be 66 82 94 3d 3b ab 77 3e 6c ed 82 3e
       -0.4432482 0.07251434 0.24186413 0.25571764
0001f0 0e 81 85 be 60 02 ca bc 64 74 ba 3e 01 38 a4 bc
       -0.26075023 -0.024659336 0.36416924 -0.020046236
000200 3d 79 15 3e fc 10 8d 3c 6e b2 9a be 43 1e 87 3f
       0.1459703 0.017220013 -0.30214256 1.055611
000210 e5 63 51 be 38 84 17 3e b0 74 74 3e 94 89 d5 3c
       -0.20448263 0.14796531 0.23872638 0.026066579
000220 b8 25 d1 3d 81 59 ae be 73 8b b1 3d 2a df 71 3e
       0.102122724 -0.3405266 0.08669176 0.23620287
000230 b9 ce 2f bf 83 4a 1b be 1c 40 9f be c1 18 15 bd
       -0.6867481 -0.15165143 -0.311036 -0.03640056
000240 3d 6e a3 3e 5d d3 37 3e 62 90 f8 be 8e f1 dc be
       0.31920043 0.17951722 -0.48547655 -0.43153042
000250 fb 07 b7 3e 94 83 b2 bc 44 f9 35 be 59 4d 2d 3f
       0.35748276 -0.021791257 -0.17770869 0.6769615
000260 11 86 6b bf fb e5 05 3f 62 7a 18 3d 65 50 e4 3d
       -0.92001444 0.5230405 0.03722609 0.111481465
000270 bc 8d 8a 3e 83 53 9c bd b6 26 99 3e 39 69 72 be
       0.2706126 -0.07633116 0.29912347 -0.23672952
000280 30 c0 ac 3e c1 30 b0 3e 93 67 d8 3d e2 80 98 be
       0.33740377 0.34412196 0.1056663 -0.2978583
000290 3a 8d 93 3e d0 27 cb be 4a e2 b9 3e d1 ff 03 be
       0.28818685 -0.39678812 0.36305457 -0.12890555
0002a0 57 38 8b be f9 d4 06 bf 6b cf c4 bc 76 2a 15 3e
       -0.2719142 -0.5266872 -0.024024686 0.14566979
0002b0 8a c2 81 bd b1 06 13 3d 78 c5 b0 bc 82 17 83 3e
       -0.063359335 0.035895053 -0.021578535 0.25603873
0002c0 fe 1c 1c bd 97 10 31 3e a4 ae f9 bd 69 69 53 be
       -0.038113587 0.17291485 -0.12191513 -0.2064568
0002d0 76 b7 13 3c e8 50 e8 3e 06 b1 50 be 51 94 8c 3e
       0.009015908 0.45374227 -0.20380029 0.27456906
0002e0 8a c1 57 bd eb c9 9a be 47 22 85 be ab 24 7a 3d
       -0.052674808 -0.30232176 -0.26002714 0.061070126
0002f0 35 e7 8b be cf 19 14 3e a6 bf bc 3e 6f 10 9c 3d
       -0.27324834 0.1446297 0.36864966 0.07620322
000300 b0 20 dd bd 32 c8 c0 3c bf c9 99 be 3f d8 d7 3c
       -0.1079725 0.02353296 -0.30036733 0.026348231
000310 de 60 c8 be 15 7a e7 3e 48 b3 c3 3e fd cb 5f be
       -0.39136404 0.4521033 0.38222718 -0.21855159
000320 24 7c 38 3e db 3b 71 3e d2 9f b0 be de 73 b8 be
       0.18016106 0.2355799 -0.34496933 -0.360259
000330 bc a5 8d be ae b2 9d bd 73 52 16 3e 05 5c 1d 3e
       -0.27665508 -0.07700096 0.1467989 0.15367134
000340 55 c2 d8 3d c5 0a 53 be 48 7f 0c 3f c7 3f e4 3d
       0.10583941 -0.20609577 0.54881716 0.11144977
000350 e0 61 1e be 43 ea cd 3d a0 5d e3 3e 59 e3 26 3d
       -0.15467024 0.100544475 0.44407368 0.04074416
000360 eb 3d 98 3d 84 77 c5 be 6e 03 9c be 46 eb d0 be
       0.07433685 -0.38567746 -0.30471367 -0.408045
000370 41 f5 47 bd 0e 2b 23 bd 54 18 4a 3d 0c 0b 05 be
       -0.048817877 -0.039835982 0.049339607 -0.12992495
000380 43 0c 4d 3d 50 9c 9b 3d 37 76 1f bd 69 ec 01 bd
       0.05006052 0.075981736 -0.038931098 -0.0317196
000390 4b b5 2d 3e ba 2d 13 be 94 ca c4 be 3c 02 01 bf
       0.16963689 -0.14372912 -0.38435805 -0.50394034
0003a0 70 35 99 3e d0 63 02 bd 0a 97 ef bc 0d 7a c5 be
       0.29923582 -0.03183347 -0.029246826 -0.3856968
0003b0 9e f8 ee 3c ae 21 fc bd 83 5e a8 be f1 b4 77 be
       0.029171284 -0.123111114 -0.32884607 -0.24190117
0003c0 db 04 c2 3d 61 2d 96 3e a2 78 a3 3c 61 bd 1f 3e
       0.09473582 0.29331496 0.019954983 0.15599586
0003d0 02 13 9b 3e b0 ad 80 be 2a 27 6e 3e e6 89 0b 3e
       0.3028794 -0.25132513 0.23257127 0.13626823
0003e0 ab 61 49 3e 4c 8b f2 bd 54 0f 0c be 52 08 8e 3e
       0.19666164 -0.11842975 -0.13677722 0.27740723
0003f0 3b 94 4a 3e f1 e0 08 bf 6b ab ca 3e 77 a7 a2 be
       0.19783108 -0.53468233 0.39583907 -0.3176839

bias f4 [12]
000000 19 17 a7 bd 16 39 cd 3e d5 e3 d6 bd c7 33 b2 3e
       -0.081587024 0.40082616 -0.10492674 0.34805128
000010 61 80 22 3e 73 af b9 bd e9 4c 13 be c5 a6 93 be
       0.15869285 -0.090666674 -0.14384808 -0.28838173
000020 4f fe 0f 3e 4b d7 97 3e e2 dc 19 3e 1a cc b6 3e
       0.14061855 0.29656443 0.15025666 0.35702592

weight_ih_l0 f4 [256, 45]
000000 75 9d ad 3e be 27 b2 3e a1 6d 06 3f be 39 c2 bf
       0.33909193 0.34795946 0.5251103 -1.5173872
000010 d6 9d 2d 3f 90 82 a7 3e 12 9f c7 bd 58 e0 21 be
       0.67818964 0.327168 -0.09747137 -0.15808237
000020 e5 85 0b 40 30 01 b1 3f 0a 8b c4 bf 6c 78 e4 bd
       2.1800473 1.3828487 -1.5354931 -0.11155781
000030 91 c4 a6 3d c9 25 8a bf 0b 4a da 3e 89 b1 01 c0
       0.08142961 -1.0792781 0.42634615 -2.026461
000040 71 06 a9 bf 9d a6 2b bd 74 95 c8 be be b3 64 3f
       -1.3205091 -0.04190694 -0.39176524 0.89336765
000050 7f 2a 34 bd 8b 2a a3 3e fb 4e 9a 3e 71 e0 79 3f
       -0.04398584 0.31868395 0.30138382 0.97608095
000060 db b2 08 bf 32 f5 31 bf 6d 95 46 3f d6 1c 01 bf
       -0.5339791 -0.69514763 0.77571756 -0.50434625
000070 60 14 19 3f c0 bc 55 be 6b 10 42 bf b1 39 e3 be
       0.59796715 -0.20872784 -0.758063 -0.44379953
000080 2d 78 2c 3f 03 bb 49 3c f2 f5 f3 3d e2 cd fe bd
       0.67370874 0.0123126535 0.11912145 -0.12441613
000090 0f c4 31 3d 16 44 85 3e e3 db f1 bd d1 b6 cb 3c
       0.043399867 0.26028508 -0.11809518 0.024867447
0000a0 18 06 d4 bd 8b 59 aa 3e 3a 41 bd 3e 27 45 2f 3e
       -0.10352725 0.3327144 0.36963826 0.17116223
0000b0 db 1e c2 3b a4 3a cb be aa 85 a2 3e 9f 5d e0 3e
       0.0059240884 -0.39693177 0.31742603 0.43821427
0000c0 32 08 27 3f 30 6d 1a 3f 12 4a 06 3f af 21 7e be
       0.6524688 0.60322857 0.5245677 -0.24817537
0000d0 1e 89 6c be a2 ea 32 40 6d 39 24 3f dd 39 7f 3f
       -0.23099181 2.7955709 0.64150125 0.9969767
0000e0 cb ad a1 be 78 b1 95 3e c6 be 00 40 48 2d f8 3e
       -0.31577906 0.2923696 2.011644 0.48472047
0000f0 ba 46 9a bf fa 1e 0c 3f 55 0f d6 bf 23 19 8f bd
       -1.2052834 0.54734766 -1.6723429 -0.06987216
000100 62 ce 41 be 9f d8 8d 3e 5d 58 7f 3e d3 0f 42 3f
       -0.18926385 0.2770433 0.24936052 0.75805396
000110 30 17 54 3d 2f cb 1d 3f ed b9 d8 3e 91 ae 90 be
       0.051779926 0.6163816 0.4232935 -0.28258184
000120 c9 d9 20 bf 13 33 22 3c f4 00 c5 be bd c4 86 3e
       -0.62832314 0.009899872 -0.3847729 0.26321974
000130 2d 0c ba 3e 66 15 81 be 2b 2f 84 3e 0f 57 a7 3e
       0.36337414 -0.25211638 0.25817236 0.32683608
000140 75 40 c0 3d 32 e4 a9 3e 3e 1d ed bd eb ab 99 3d
       0.09387294 0.33181912 -0.11577843 0.07503494
000150 38 7f a3 bd bc 62 42 3e a6 26 4d bf 94 fd 28 3e
       -0.079832494 0.18982977 -0.801371 0.16502982
000160 34 b0 82 3d 24 c9 18 3d e7 92 9d 3f 3f 1c 80 be
       0.06381264 0.037301198 1.2310456 -0.2502155
000170 a8 4c 7c be 7b 1a fc 3e 2a 94 0d c0 62 e5 31 3f
       -0.24638617 0.49238953 -2.2121682 0.69490635
000180 37 34 ef 3e 7d 15 c7 3e be e9 b9 3d 8f 46 37 bf
       0.46719524 0.38883582 0.09077786 -0.7159204
000190 81 4a bd 3f 22 bd 14 bf 4f 3c 91 3f a2 79 40 bf
       1.4788362 -0.58101094 1.134653 -0.75185597
0001a0 5e f1 64 bf 65 f0 c0 3f 52 37 0d 40 cb de 47 3e
       -0.894308 1.5073363 2.2065015 0.19518583
0001b0 ed 59 af 3f c2 59 b4 be ca c1 46 3f b2 35 a0 3f
       1.3699318 -0.3522473 0.7763945 1.2516387
0001c0 09 97 bd 3f bc d3 ab bf 68 76 22 3d 80 1f b1 bd
       1.4811717 -1.3423991 0.039663702 -0.08648586
0001d0 5a 6f 30 bf 82 a8 13 3f 01 11 1c 3d e3 2f d1 be
       -0.6891991 0.57679 0.038102154 -0.40856847
0001e0 05 41 70 be 3f e6 7c bf 45 1b 4c be fd 15 e5 bc
       -0.23462303 -0.9878883 -0.19932278 -0.027964586
0001f0 24 c4 db 3d b6 ec be 3d 5b 9a 69 3f ae 5f 5b be
       0.1073077 0.09322493 0.9125115 -0.21423218
000200 9f b8 f2 3e 3d bb cc 3e ae 7c 99 3d 5d 13 e6 3e
       0.4740648 0.399866 0.07494484 0.44936648
000210 cf 2c 26 3f b0 c1 be 3d ca cd 28 be a2 87 01 c0
       0.6491212 0.09314287 -0.16484752 -2.0239034
000220 98 2b a9 bd 68 54 93 3c 08 f7 ed 3f c0 f2 ad 3e
       -0.08260268 0.017984584 1.8591013 0.33974266
000230 c6 66 61 be e1 53 23 be f4 5c d9 bd 14 c5 87 3f
       -0.22011861 -0.15949966 -0.106134325 1.0607018
000240 18 0a 32 40 5b 01 6b 3f 82 75 95 be 1d 10 c0 3e
       2.781866 0.91798943 -0.29191214 0.37512293
000250 99 87 bc bf 4a a9 19 bf df 5e 11 40 09 c8 9d bf
       -1.4728881 -0.6002394 2.2714155 -1.2326671
000260 e0 4e 3f 3f 99 cf 27 3e 83 41 b4 3e bf 60 1a bf
       0.7472973 0.16387786 0.3520623 -0.6030387
000270 92 d6 68 3e b6 12 09 3f 84 94 18 bf f3 18 17 3f
       0.22738102 0.53544176 -0.59601617 0.59022444
000280 20 70 28 bf 6c 43 4a be af 70 09 40 4a de be be
       -0.6579609 -0.19752282 2.1475027 -0.37278968
000290 4b ea ce be a0 82 4d 3e 80 d0 0c be 6f 68 03 3f
       -0.40413126 0.2006936 -0.13751411 0.5133123
0002a0 78 c7 da 3d b6 1e a8 bd aa 92 4c 3d 32 8e 00 3f
       0.10682577 -0.08208983 0.049944557 0.5021697
0002b0 38 ed 17 bd cf 88 08 3e 79 d1 29 3f 6a 78 84 be
       -0.037091464 0.13333438 0.66335255 -0.2587312
0002c0 0f 61 9f 3e ef 06 b9 3e af 36 ea 3e d5 54 1c 3d
       0.31128737 0.36138102 0.45744845 0.03816684
0002d0 04 bc 0a bf be 0b 8b bf 16 67 32 bf 2f 2c 29 be
       -0.5419314 -1.0862958 -0.69688547 -0.16520761
0002e0 76 0c b5 be 99 6b ba 3e 1c 90 12 be d7 31 9e 3e
       -0.3536107 0.36410215 -0.14312786 0.308974
0002f0 7f b7 c6 3f 2c 7f c4 bd b0 7b 9d 3f 8e 7f 8a be
       1.5524749 -0.095945686 1.2303371 -0.27050442
000300 b3 e8 4f be 97 9c d1 be 31 8a 39 3f 38 4d 4d 3f
       -0.20303611 -0.4093978 0.7247649 0.8019595
000310 1e 93 af bf 12 48 9a bf 46 a1 21 40 ba 0d 8b bf
       -1.3716772 -1.2053244 2.5254683 -1.0863564
000320 70 2f cf be 7b d5 cc 3e 18 cb 8b 3e 1e 8d f3 be
       -0.4046588 0.40006623 0.27303386 -0.475686
000330 b6 44 85 be 08 8c 93 bf 75 f5 29 3f 20 a7 c2 3c
       -0.26028985 -1.1527109 0.6639016 0.023761332
000340 c5 42 f4 be 31 46 9a bf ee 2e 07 40 ca fe 85 bf
       -0.4770719 -1.2052671 2.1122394 -1.046838
000350 72 5d 08 bf ad 94 d7 bd 36 b1 ce be 94 27 da bc
       -0.53267586 -0.105264045 -0.40369576 -0.0266302
000360 8d 12 89 be 9d b8 0f 3d d4 1e 2c be c0 6c b1 3e
       -0.26771966 0.03508817 -0.16808635 0.34653282
000370 84 61 f7 be 25 3b bc 3e e3 9c 18 bf 6c 1a 4a 3e
       -0.48316586 0.36763874 -0.5961439 0.19736642
000380 44 1e 97 3d 71 f9 1d bf 02 83 0a bf 7c 2e da be
       0.073788196 -0.6170874 -0.5410615 -0.4261359
000390 03 19 06 bf 32 26 78 be 88 7a ad 3e 84 3b 07 bc
       -0.52381915 -0.2423332 0.33882546 -0.008253936
0003a0 65 3e b2 bc 0c b4 87 3d 8e 37 6f bf 08 8f b8 bf
       -0.021758268 0.06626138 -0.93444145 -1.441865
0003b0 ce dd b4 3e ba 6b fa 3e 0f e3 67 be 4c a1 a3 bd
       0.35325474 0.48910314 -0.2264521 -0.07989749
0003c0 62 0f 2d bf 75 ef bb be 7c 01 64 be ee de 4b 3e
       -0.676016 -0.3670613 -0.22266191 0.1990926
0003d0 a0 0e 1e bf e0 89 bb be cf b9 b8 3c 33 c3 b7 be
       -0.61741066 -0.36628628 0.022549538 -0.35891113
0003e0 d6 64 e7 3b 2e 11 e7 3e e5 5a 28 3e be 1d 94 be
       0.007061581 0.45130295 0.16440924 -0.2892894
0003f0 40 23 fe 3d 66 cc a9 3b 6b 6d 12 3e 14 9e 54 3f
       0.12409067 0.005181837 0.14299552 0.8305371

weight_hh_l0 f4 [256, 64]
000000 bf 10 0d 3e 1a 80 12 3f ca a0 ab be 29 56 68 3e
       0.1377592 0.5722672 -0.3352111 0.22689117
000010 af fc 58 bf f8 c5 55 be b1 24 85 be 00 2e 9e bc
       -0.84760565 -0.208763 -0.26004556 -0.019309044
000020 b2 b0 c2 be 2f e6 cf bc 03 5d 5d bf 0c 90 ab be
       -0.38025433 -0.025378315 -0.8647005 -0.33508337
000030 6b f9 51 3e 8a fc 64 3f b1 0d a2 3d d9 7e 6c 3e
       0.20505302 0.89447844 0.07912768 0.23095264
000040 92 ff 50 be f4 0b 81 3e 11 0a 74 3e 2a 6f 3b 3d
       -0.20409992 0.25204432 0.23831965 0.04576031
000050 84 84 8d bf ad 27 54 3f 77 ea aa be 93 d8 b8 3f
       -1.1056066 0.8287304 -0.33382007 1.4441093
000060 2e 9a e7 3e 18 d6 74 be 7a 37 4f 3a 16 b8 91 be
       0.45234817 -0.23909795 0.000790469 -0.2846076
000070 d7 b2 61 3f 01 be 17 3f d5 4e 9f 39 74 ae 98 3e
       0.8816351 0.592743 0.00030385578 0.29820597
000080 fe 94 c0 be 78 89 0f bf 2c 6b a3 be c7 26 65 3e
       -0.37613672 -0.56069136 -0.31917703 0.22378074
000090 08 cc 0f 3f 04 5a 34 be e6 84 1c 3e b2 8a a9 bf
       0.561707 -0.17612463 0.15285072 -1.3245451
0000a0 11 bc 8c bf 18 1b 96 be 2e 18 21 3d 52 ca c0 3e
       -1.0994893 -0.29317546 0.0393297 0.37654358
0000b0 67 60 0e 3f 80 36 30 3f 79 99 31 3f 3c d6 a9 bf
       0.5561585 0.6883316 0.69374806 -1.3268504
0000c0 e1 65 43 bf 09 5e 7c bf 1c 33 64 3e 17 e8 f6 3e
       -0.7632733 -0.98580986 0.22285122 0.48223945
0000d0 9c d1 94 3f d1 5e c3 3e 73 1a 12 bf 83 6c 1f bf
       1.1626468 0.38158277 -0.5707161 -0.6227495
0000e0 6a e0 4a 3d 6e dc 45 3e 7c 48 65 be a3 cc 7c 3f
       0.049530424 0.19322369 -0.22390932 0.9874975
0000f0 e2 60 76 3e dc 20 54 bf a2 31 ea 3c ad c5 8a 3f
       0.24060395 -0.8286264 0.02858812 1.0841576
000100 4f 0b 12 3f 3e 56 15 bc b6 b9 86 3f 12 c4 36 3f
       0.57048506 -0.0091148 1.0525424 0.7139293
000110 20 0a 18 be 62 9d 0f 3d 51 9c b1 3f 33 e7 fe 3e
       -0.14847612 0.0350622 1.3875829 0.49785766
000120 c6 f4 86 3f 9d d8 b2 3e 21 d4 b0 be 98 d6 2d 3e
       1.0543449 0.34930888 -0.34536842 0.16976392
000130 a5 10 b9 3d 99 b1 ea bd b0 e6 6f 3d 50 ab be be
       0.09036378 -0.11459655 0.05856961 -0.37240076
000140 91 39 23 bd 93 03 b9 3e 21 7e aa 3f 1f 63 14 bf
       -0.03984982 0.3613554 1.3319741 -0.57963747
000150 07 f6 72 bf de f8 c2 3e a4 9e bd 3b 01 fc 72 3e
       -0.9490666 0.38080496 0.0057867337 0.23728944
000160 4b ef 92 be fb 57 8c bf d2 c4 c7 3c 21 11 d4 bf
       -0.2869819 -1.096435 0.024385843 -1.6567727
000170 b4 cb 9b bf df f0 8b 3f b4 47 be 3e 20 9b 01 bf
       -1.217154 1.0932883 0.3716408 -0.50627327
000180 a5 d5 6e 3f 56 63 23 3f f5 44 11 be 8b d2 cf be
       0.93294746 0.6382345 -0.14186461 -0.4059032
000190 7f df 08 bf 47 97 99 3e 25 7a 25 bd ed 81 d1 3d
       -0.5346603 0.29998228 -0.04039969 0.102298595
0001a0 69 8a af be 85 70 4e 3e b1 70 4f bc 88 7f b6 3e
       -0.34285286 0.2016011 -0.012661145 0.35644174
0001b0 ef c8 62 be 88 83 57 bc 0f 51 95 be 9d a0 08 be
       -0.22146963 -0.013153918 -0.29163405 -0.13342519
0001c0 f2 93 ae 3e fe a5 37 be e9 06 2e bd 3c ac 73 3e
       0.34097248 -0.17934415 -0.04248706 0.23796171
0001d0 df 6a 4a be b1 ef b2 bd 7d 70 51 3f 78 91 bc 3d
       -0.1976733 -0.08737124 0.8181227 0.092074335
0001e0 59 06 6c 3e 4a 4f ab bf 29 e7 36 bf 3d cd 1c bf
       0.23049296 -1.3383572 -0.7144647 -0.6125067
0001f0 06 3b 3d be a0 26 12 3f a4 c3 70 3f 92 b4 96 3e
       -0.18479547 0.5709019 0.94048524 0.2943464
000200 1f d1 8f be 45 b8 94 3f 13 8e 79 bf 0c ae 79 be
       -0.28089234 1.1618735 -0.97482413 -0.243828
000210 03 54 b2 be 9e 21 b1 3f d7 0c 18 bf 05 14 07 3f
       -0.3482972 1.3838384 -0.5939459 0.5276492
000220 e5 38 85 bf 58 bb f2 3d 51 05 ba 3f 9d 8b 80 3f
       -1.0407988 0.11852139 1.4532872 1.0042607
000230 12 01 6b bf f3 97 8c be 48 c7 4f bf 42 fb 09 bf
       -0.9179851 -0.27459678 -0.81163454 -0.53899014
000240 fa 61 13 c0 19 67 33 3f a0 da 2f 3f 30 58 51 3f
       -2.302855 0.7007919 0.6869297 0.8177519
000250 0c 5d a4 bd 7d 01 d6 3e 46 e0 74 bb cb 3f 81 ba
       -0.0802556 0.4179801 -0.0037365123 -0.0009860931
000260 7d f9 95 3e 6d 08 c8 3d ee 68 82 be 64 0e 51 bf
       0.29291907 0.09767232 -0.2547068 -0.81662583
000270 f2 fb c9 3d 34 d4 8e 3f f6 37 56 3f 54 c1 81 be
       0.09862508 1.1158509 0.8367914 -0.2534281
000280 3d fa 72 be c2 b5 43 3e 28 52 db 3c f5 2f be 3f
       -0.23728271 0.19112304 0.026772574 1.4858385
000290 eb 3c b1 3e 23 92 f1 3e 6d 50 2e 3f 00 25 74 bf
       0.3461679 0.47181806 0.6809147 -0.9536896
0002a0 bc d4 79 3f 94 3a 97 be f2 ce 40 bf 97 d0 4b be
       0.9759023 -0.2953688 -0.75315773 -0.1990379
0002b0 f7 b8 53 bf 6d 9a ce be 98 17 83 3f ba 7e ae 3e
       -0.8270411 -0.40352193 1.0241575 0.3408106
0002c0 54 35 50 bf e9 13 4c be a6 b4 7b 3e a8 44 8b 3e
       -0.8133137 -0.1992947 0.2458063 0.27200818
0002d0 38 16 b5 3d 28 75 a3 3c 5d ee da 3f 80 43 1e be
       0.088421285 0.019953325 1.7103993 -0.15455437
0002e0 0a 39 9e 3e 2b b4 84 bc 4a 34 a8 bf 01 34 29 bf
       0.30902892 -0.016199192 -1.3140957 -0.66094977
0002f0 01 bf 69 bf 81 05 85 be cc e8 37 3d 6d ac 81 3f
       -0.91307074 -0.25980762 0.044899747 1.0130745
000300 2d be 8d be ee f3 10 3f 0b 12 48 be 19 8f 17 3f
       -0.27684155 0.5662221 -0.19538133 0.59202725
000310 f4 ed 5e bf 05 43 37 be 3b 0c ce be 45 31 5e 3f
       -0.8708184 -0.1789666 -0.40243706 0.8679393
000320 a3 d1 0f bf 9a f4 45 3f 92 77 7c bf 16 29 cc 3e
       -0.56179255 0.7732636 -0.9861995 0.39875096
000330 46 8f 64 3e a4 8c 7d be 70 b3 36 bd 5a 3e 1f 3f
       0.2232028 -0.24760681 -0.04460472 0.62204516
000340 b7 3d 8c bf 17 36 64 3e 56 7a 36 bf a6 f6 bb 3e
       -1.0956334 0.22286259 -0.7128042 0.36711615
000350 7b 3a 73 be d4 6d e6 be 5c 08 f5 3e fe 62 03 3c
       -0.23752777 -0.45005667 0.4785794 0.008019207
000360 6d 7d d2 3d 13 35 bd 3e 44 28 e3 be c4 3a 4a be
       0.10277829 0.36954555 -0.44366658 -0.1974898
000370 8f da 3c 3f 76 b5 01 be 8b 8d f1 3e e3 91 20 bf
       0.73770994 -0.12666878 0.471783 -0.62722605
000380 b1 c0 a8 bd 14 1e 0b 3f 9b 24 91 bf 91 30 81 bf
       -0.08239878 0.5434277 -1.1339296 -1.0092946
000390 e0 f9 14 be 05 68 2a bf 29 5a 06 be 8f 3b e0 3e
       -0.14548445 -0.6656497 -0.13120331 0.4379544
0003a0 45 21 b9 be bd f5 0a be 6f fc 36 bf fc 8e 63 3e
       -0.36158195 -0.13570304 -0.71478933 0.22222513
0003b0 07 2d 55 be 5a 0e 2b bd 30 4b 0d bf 6f 35 bf be
       -0.20817958 -0.041761734 -0.5519285 -0.37345454
0003c0 03 61 e0 3e ec 51 6e be 4c fb 03 c0 40 2d 76 bf
       0.43824014 -0.23273438 -2.062213 -0.96162796
0003d0 12 55 d2 3e a9 68 11 3f 09 32 d7 3e 8f 93 2f bf
       0.41080528 0.56800324 0.4203036 -0.6858453
0003e0 8d c9 1f 3e 76 cf 68 be b6 05 c4 3e 9c 27 88 be
       0.1560423 -0.2273539 0.38285607 -0.2659272
0003f0 b0 21 e6 be b9 eb 41 3e 0a 83 b0 3e 06 d5 97 3e
       -0.44947577 0.18937577 0.34474975 0.2965471

bias_ih_l0 f4 [256]
000000 d4 aa dc be f2 45 bc be 3a 48 4f bf 7f cd 53 bc
       -0.43099082 -0.36772114 -0.80969584 -0.012927412
000010 a5 d1 1c bf c8 61 07 bf 62 55 9f bd 9d 58 92 be
       -0.6125739 -0.5288358 -0.07779957 -0.28583232
000020 3c 3c a6 3d 8b 35 44 bd d6 4b fa bd 86 90 3f be
       0.081169575 -0.047902625 -0.12221496 -0.18707475
000030 2d 58 15 be 77 e4 c3 be e2 5c 9e 3d 4f 0f e4 be
       -0.14584418 -0.38260242 0.0773256 -0.4454293
000040 ce 6f 07 bf dd 99 4a be 93 b9 30 bf 4d 51 d5 3e
       -0.52904975 -0.19785257 -0.69033164 0.4166359
000050 5e 0f ce bd fa 33 74 be a7 16 c8 be 4b 2f 1a bf
       -0.10061525 -0.23847952 -0.39079782 -0.60228413
000060 c1 ef 09 bf c3 71 75 3c b8 a4 73 3d e3 07 18 be
       -0.5388146 0.014980736 0.05948326 -0.14846759
000070 3b 0c 31 be 9b db 1e 3e a5 2e 05 bd ba ae 92 be
       -0.17289822 0.1551346 -0.032515187 -0.2864893
000080 fb b4 ae be a8 27 a0 be 8e 7b ce bd 94 8f 49 be
       -0.34122452 -0.31280255 -0.1008216 -0.19683677
000090 49 9d 13 be 60 f5 00 be 96 b8 73 be a6 e8 d7 be
       -0.14415468 -0.12593603 -0.23800883 -0.42169684
0000a0 27 93 0d be 29 c0 0b bf cc 01 3e bd 77 68 a0 3b
       -0.13825665 -0.5459009 -0.046388432 0.0048952657
0000b0 69 dc e4 be 03 44 db be b7 d5 05 bf d4 15 c2 be
       -0.4469941 -0.42825326 -0.5227923 -0.3790728
0000c0 9d 4b eb be 5d cd 9b be 89 aa d7 be f4 f1 c5 be
       -0.45956126 -0.30430117 -0.42122295 -0.38661158
0000d0 d3 7d 01 bf 4f 9d 51 3d 13 e0 d9 be 0e 33 ad bd
       -0.5058262 0.05117541 -0.42553768 -0.084570035
0000e0 fc 38 80 be 8a 0a 1a 3f 71 4d 9b bd a1 74 1c 3e
       -0.25043476 0.6017233 -0.0758313 0.15278865
0000f0 89 c5 10 bf e7 06 9e 3e b7 0a 19 bf 49 4f cd be
       -0.56551415 0.3086464 -0.59781975 -0.40099552
000100 11 2b 10 bf b8 4d 3d bf 72 4c ac bf 46 11 0e be
       -0.56315714 -0.73946714 -1.3460829 -0.13873777
000110 2d d0 bf be 71 b6 d3 be bd b9 02 bf cd 27 9d 3b
       -0.37463513 -0.4135013 -0.51064664 0.0047960044
000120 e6 cd 8f 3e e2 e5 b0 be 9d 78 0f bf fd ac c0 bd
       0.28086776 -0.34550387 -0.56043416 -0.09407995
000130 da f9 b6 3e 5a 68 06 bf 29 22 1e bf ed 29 87 3e
       0.35737497 -0.5250298 -0.61770874 0.26399174
000140 7d f8 6c bf 37 7e 36 bf 5c db f1 3e fb 16 5c be
       -0.92566663 -0.7128634 0.4723767 -0.21493141
000150 54 44 27 bf c6 55 b1 3d 73 8a 16 bf 42 6b 19 3e
       -0.65338635 0.08658938 -0.58805007 0.14982322
000160 39 ba 9e bc 9f 1b 8c be 58 50 84 bf bd 06 86 be
       -0.019375907 -0.27364823 -1.0337019 -0.26177016
000170 79 3b af be 95 26 b9 3e 70 cb 54 bf 12 c4 c3 be
       -0.34225062 0.36162248 -0.8312292 -0.38235527
000180 7d db e5 be 62 1a ff be 09 02 76 be 49 62 54 bf
       -0.4489402 -0.49824816 -0.24024214 -0.8296247
000190 a4 66 25 bf 42 e9 e1 be 2f 2f cf 3d 64 fc 11 be
       -0.6460974 -0.44123274 0.101164214 -0.14256436
0001a0 58 a7 0e bf f8 a3 7c be 07 b7 f8 be 39 38 59 bf
       -0.55724096 -0.24671924 -0.4857714 -0.84851414
0001b0 7e 87 8e bd 35 8a ea bd 3b 96 86 bf cd 09 6d bd
       -0.06959437 -0.11452142 -1.0514597 -0.057870675
0001c0 81 b5 46 3e 2f 80 fe be b8 e5 bb be e0 04 3a be
       0.19405176 -0.4970717 -0.366987 -0.18165922
0001d0 b9 51 a1 3e 8c fa ad be 16 d3 aa 3e e6 da 18 bf
       0.31507662 -0.33980215 0.3336417 -0.5970901
0001e0 c8 0d 7f be 68 5b 26 bf 72 2d 00 3e 9e 8d 2b bf
       -0.24907601 -0.64983225 0.12517336 -0.67012966
0001f0 91 65 8f 3e 9c 8f 34 be 8f 27 bd be f2 0f 17 bf
       0.28007177 -0.17632908 -0.36944243 -0.59008706
000200 0f 7e 94 be c2 7e 4b 3d 62 a1 53 3e ec 0c 87 3e
       -0.29002425 0.049681433 0.20667031 0.26377046
000210 02 5c 73 3d 0e e1 04 be 07 74 d5 bc d6 fd 3a 3d
       0.059413917 -0.12976477 -0.026056303 0.045652233
000220 0d 32 3f 3e 65 99 5b bc c5 bd 90 3d 7c 15 bb 3d
       0.18671437 -0.013403271 0.07067446 0.09134957
000230 1b d9 0a 3e 6b b7 85 bd cb 8d 8a 3e b1 f0 18 3d
       0.13559382 -0.06529125 0.27061304 0.037338916
000240 02 7a 3c 3e 82 c1 34 bd ab 54 f5 bd 3e 4d 86 bd
       0.18405917 -0.044129856 -0.1197904 -0.065577015
000250 0c 6c 1c 3d 64 ae a9 be 71 e7 a4 bc 07 45 0c 3d
       0.03818898 -0.33140862 -0.020129891 0.034245517
000260 6a c4 48 3d 86 2f b8 bd ff 15 74 bd ff a0 88 3c
       0.04901544 -0.089934394 -0.05959129 0.016678331
000270 26 2a 11 3e fc 8b 4a bd 4d 4e cd bd c6 b6 f0 bc
       0.14176235 -0.049449906 -0.100247 -0.029384028
000280 9e e4 03 3e 6c 7b 17 be 2f cd 5e 3e 25 24 87 bb
       0.1288018 -0.14793175 0.21757959 -0.004124182
000290 58 20 dc be 30 f1 01 be 2d 4b 0e 3e 4c 9c 64 3c
       -0.42993426 -0.12689662 0.13895865 0.01395328
0002a0 87 89 24 3e 0e 5a cc 3d 68 0b 3a 3d c1 71 f8 3c
       0.16068088 0.09978114 0.045421034 0.03032768
0002b0 cf f8 8f bd fc 67 9a bd 05 e8 e1 3d b6 98 47 bc
       -0.07029878 -0.07539365 0.11030582 -0.012182405
0002c0 6d 5b 91 bc d1 f5 7e bc 63 41 a7 3d d7 44 8f bd
       -0.01774379 -0.015561537 0.081667684 -0.06995552
0002d0 43 87 13 3e 5c 87 59 bb 73 08 1d be be 7a 65 bd
       0.14407067 -0.0033192253 -0.15335254 -0.05602526
0002e0 4b 1c 5b 3d b3 f5 4d bd c2 ef a6 bc b3 40 ad 3d
       0.05349378 -0.050283145 -0.020377997 0.08459606
0002f0 79 65 86 3d fc fb 36 3f 12 67 f7 bc 30 0d d3 bd
       0.06562323 0.7147825 -0.030200515 -0.1030525
000300 10 d0 61 be fb 99 a1 3d bb 7a e2 be 5e 38 a3 be
       -0.22052026 0.078906976 -0.4423426 -0.31878942
000310 21 16 a8 be a0 11 3c 3f 2e de 3f be 71 8a 47 3d
       -0.32829383 0.73464394 -0.18737099 0.048716012
000320 f6 19 a5 be 7c 16 4d be b6 7b a8 be e1 49 e3 3e
       -0.3224637 -0.20028108 -0.32906884 0.44392303
000330 7d b9 5f be 2d e7 7c be 8e 76 d4 bc a1 d2 96 be
       -0.21848102 -0.24697562 -0.025935438 -0.29457572
000340 43 7e 21 bf 06 b0 0f 3f 94 4b 8a 3d cb cb 14 3e
       -0.63083285 0.56127965 0.06752697 0.14530866
000350 0e 6a 37 bf ce b6 8f be ca 21 06 3e 3c 14 81 be
       -0.716462 -0.28069156 0.13098827 -0.2521075
000360 44 c4 dd be 62 eb 8d be be 6d 46 be fb 19 ce be
       -0.433138 -0.27718645 -0.19377801 -0.40254197
000370 cc bf c7 be a7 83 aa be b4 a3 b9 be cc a7 d6 be
       -0.39013517 -0.33303568 -0.36257708 -0.41924894
000380 b9 c2 e2 be 02 07 a4 be 3d 93 6c be a6 f7 99 bd
       -0.44289187 -0.32036597 -0.23103042 -0.07517938
000390 05 67 b5 be af 60 a9 be a9 51 95 be 6f da bd be
       -0.3543016 -0.33081576 -0.29163864 -0.37080714
0003a0 10 79 27 be 1f 86 ce be 4b be 50 bf 9c 01 ad 3e
       -0.16354775 -0.403367 -0.81540364 0.3379029
0003b0 82 84 a6 be 36 6b 62 be 06 e7 38 bf c3 16 1f be
       -0.3252297 -0.2211121 -0.72227514 -0.15536027
0003c0 47 24 b8 be 92 14 ec be db f5 2c bf 27 81 94 be
       -0.35965177 -0.46109444 -0.67562646 -0.29004785
0003d0 67 c7 a2 3d 5f 17 11 3e a5 60 00 be c1 32 8a bd
       0.07948189 0.14169072 -0.12536867 -0.06747962
0003e0 7f 93 cc be 3e 5b 27 bd fa 5d c4 be b8 e4 51 bb
       -0.3995628 -0.0408585 -0.38352948 -0.0032027196
0003f0 38 70 60 3e 14 73 c7 be a3 27 99 bd 5e 02 4c bd
       0.21917808 -0.38954985 -0.07478263 -0.049806945

bias_hh_l0 f4 [256]
000000 03 d2 8e be 3a d3 fc be da 85 27 bf eb 3d 6e 3c
       -0.278946 -0.49379903 -0.65438616 0.01454113
000010 f5 ad f8 be d3 36 0f bf 66 03 61 bd d1 ca ea be
       -0.4857022 -0.5594303 -0.05493488 -0.45857862
000020 f9 32 fd bd 9c f4 37 be c4 95 31 be b7 c5 68 be
       -0.12363238 -0.17964405 -0.17342287 -0.22731672
000030 44 e4 7d be c6 a4 ce be ce c3 e0 3d 01 9b ac be
       -0.24794108 -0.40360087 0.10974847 -0.3371201
000040 14 06 07 bf c8 5b ac be 04 57 08 bf 2f 2b 0e 3f
       -0.5274365 -0.33663774 -0.53257775 0.5553464
000050 f5 03 4e 3d 5f bf 33 be 6c 9f ba be 01 85 17 bf
       0.050296742 -0.17553471 -0.36449754 -0.5918732
000060 3f ad e0 be 77 09 77 bc b8 1a 3e 3e a0 e7 0e be
       -0.43882176 -0.01507794 0.1856488 -0.13955545
000070 65 b4 b6 bd 96 9e cf 3d 84 9c 21 bd 82 aa da be
       -0.08921126 0.1013767 -0.039455906 -0.42708212
000080 e5 f9 96 be 30 6e 3d be d9 24 36 be 14 00 cf bd
       -0.2948753 -0.18499064 -0.17787494 -0.10107437
000090 18 18 8f bd 77 4b 5a be c0 8f 8e be 7a f8 e1 be
       -0.069870174 -0.2131785 -0.27844048 -0.44134885
0000a0 51 48 05 be d7 67 a4 be d6 48 34 bd 4c f1 4e be
       -0.13015868 -0.32110474 -0.044014774 -0.20209235
0000b0 d9 c5 22 bf 63 b4 e1 be e3 f4 c3 be 3c 1d e7 be
       -0.6358314 -0.44082937 -0.3827277 -0.45139492
0000c0 f8 af ee be f3 9d 0b be bd 20 08 bf aa dc 4b be
       -0.46618629 -0.13634472 -0.53174955 -0.19908395
0000d0 9a ca 03 bf 81 ae 09 3e b6 53 01 bf 8a 21 59 3d
       -0.5148102 0.13445474 -0.5051836 0.0530105
0000e0 e7 20 81 be f9 fb fd 3e 71 5d 09 be ee ea 4d 3e
       -0.25220415 0.49606302 -0.13414551 0.2010915
0000f0 93 3a fd be 2d ba 9f 3e 3d b1 e2 be 05 b0 fa be
       -0.4945875 0.31196728 -0.44275847 -0.48962417
000100 c0 ea 0c bf 56 1c 4b bf aa 0e 9b bf 80 d8 35 be
       -0.550457 -0.7934011 -1.211385 -0.1775837
000110 b2 53 fd be c1 9c 42 be f9 13 dd be 4a 90 3c be
       -0.49477917 -0.1900511 -0.431793 -0.18414417
000120 cb 30 6b 3e 00 86 8a be 81 05 0b bf 91 21 c3 3d
       0.22967832 -0.2705536 -0.54305273 0.09527887
000130 2e bc c4 3e ee 78 14 bf 02 56 3d bf 06 e6 e4 3d
       0.3842482 -0.57997024 -0.7395936 0.11176686
000140 e9 0f 58 bf b5 8b 1f bf 9a 0a eb 3e 0b c5 2c be
       -0.84399277 -0.6232255 0.45906526 -0.16872041
000150 9b 76 f6 be c0 39 10 3e ed 29 f5 be 21 a5 76 3e
       -0.48137364 0.1408453 -0.4788355 0.24086429
000160 79 d9 fb 3c 17 5e 9f be df c3 7f bf d3 4d 8b be
       0.030743347 -0.31126472 -0.9990825 -0.27207813
000170 dc fa 81 be cc a3 62 3e e9 b7 20 bf 62 af 81 be
       -0.25386703 0.22132796 -0.62780625 -0.2532912
000180 6c 00 02 bf 57 23 12 bf 03 2f 92 bd 4c e3 40 bf
       -0.50781894 -0.57085174 -0.07137873 -0.7534683
000190 fd 9b 2e bf e8 f2 ce be 29 c3 e1 3c b3 d0 98 bd
       -0.6820677 -0.40419698 0.02755888 -0.07461681
0001a0 22 4a 10 bf fd a6 4d be 6d 8b 01 bf f3 e1 3b bf
       -0.5636312 -0.20083232 -0.5060337 -0.73391646
0001b0 58 ad 8f bd 0b f3 25 bd b9 a7 8f bf 86 0a ce 3d
       -0.070154846 -0.040514987 -1.122306 0.10060601
0001c0 e4 8b 85 3e 75 81 bf be 1e bc ec be c9 c2 3e be
       0.2608329 -0.37403455 -0.46237272 -0.18628992
0001d0 27 b1 ae 3e 38 c7 9e be 2f 92 b9 3e a2 e8 04 bf
       0.34119532 -0.31011367 0.36244342 -0.5191747
0001e0 c7 01 2d bd 4f f2 31 bf 98 cd 57 3a 5a 82 fc be
       -0.042238023 -0.6951036 0.0008232235 -0.493182
0001f0 d3 ac 97 3e 8f 19 5a be c4 84 89 be 6c fa 50 bf
       0.29624042 -0.21298812 -0.26859105 -0.81632113
000200 53 f9 0d be 46 9e 95 3d 4c ea 92 3e 64 03 2d 3e
       -0.13864641 0.07305579 0.2869438 0.16895825
000210 bd a0 be 3d de 31 9c bd 70 fc 07 3d f5 53 8a 3d
       0.09308002 -0.07626699 0.033199728 0.06754295
000220 74 b1 45 3e 07 89 40 be 92 d8 7c 3c 07 a6 5a 3d
       0.19305974 -0.18802272 0.015432494 0.053380992
000230 95 7f 66 3e 0d 36 00 3e 07 fc 79 3e 1d 57 b3 bc
       0.22509606 0.12520619 0.24412547 -0.021892125
000240 9d e3 b4 3e d7 91 42 3d bd 22 86 be 10 45 8b bd
       0.35329905 0.047502365 -0.26198378 -0.06800282
000250 20 c2 74 3e 74 bc 86 be 2f 56 1d be a6 76 ad 3d
       0.23902178 -0.26315653 -0.15364908 0.08469896
000260 d6 46 51 3d 49 ad 30 bc 0b 92 69 3d e9 38 03 3e
       0.051092945 -0.010783502 0.057024043 0.12814678
000270 17 ea 34 3e a8 4a 8a bc 5e a1 68 3d 52 af 0c be
       0.17667423 -0.016881302 0.056794517 -0.13738754
000280 d4 3f cd 3d 0b 7a 43 bd 9e 37 18 3d d7 f0 1f 3e
       0.1002194 -0.04772381 0.037162416 0.15619217
000290 a6 ff 8c be 5a bb 63 be 94 3e 4d 3e 22 b7 25 3e
       -0.27538794 -0.22239438 0.20043403 0.16183141
0002a0 be 95 75 3d 9f b1 43 3e 22 0e 70 3e 6c 3c 31 be
       0.05995726 0.19110726 0.23442891 -0.17308205
0002b0 f8 df 94 3b cf 78 49 3d aa cd 93 3d 5d de 3d bd
       0.0045433007 0.049187478 0.07216962 -0.04635464
0002c0 82 77 e6 3c a8 f8 11 3e 9c 88 04 3e b1 8d 39 be
       0.028133158 0.14255011 0.12942737 -0.18120457
0002d0 5f d0 44 bd 2f 49 4b bd fc 08 51 3d 7b 75 e0 bd
       -0.04805028 -0.04963034 0.05103396 -0.109599076
0002e0 af 8b 1f 3c 56 cd 84 bc ca aa bf bc 77 3f 1e bd
       0.009737893 -0.016211193 -0.023396868 -0.038634744
0002f0 99 c3 c3 3c b5 8b 12 3f a5 5a aa 3d ab 09 58 be
       0.02389698 0.57244426 0.0831807 -0.21097438
000300 a7 51 c3 be ae 73 0a 3e b6 8d 0e bf 8d cd 75 be
       -0.38148233 0.13520691 -0.55684984 -0.24004193
000310 5f 67 8a be 01 6c 1f 3f 9a fd 2b be ce 9a 1a be
       -0.2703199 0.62274176 -0.1679596 -0.15098116
000320 f2 aa b8 be f4 c1 06 be 69 3b e7 be 24 ad c2 3e
       -0.3606792 -0.13159925 -0.45162514 0.3802272
000330 13 29 ff bc 1c c8 98 bd ee 7f d0 3c e1 34 6a be
       -0.031147515 -0.07460043 0.025451627 -0.22871734
000340 42 6b 32 bf 84 2c 20 3f 93 4c d9 3d 58 e0 46 3e
       -0.6969491 0.62567925 0.106103085 0.19421518
000350 a7 f1 39 bf 7a 9f ea be 91 b3 3f 3e 1f 56 40 be
       -0.7263436 -0.45824796 0.18720843 -0.18782853
000360 60 91 fb be 2c 7b a4 be 01 0d 4a bc 18 7e ba be
       -0.4913435 -0.32125223 -0.012332202 -0.36424327
000370 66 66 89 be 21 00 47 be 6c 50 f3 be 50 ee c6 be
       -0.26835936 -0.19433643 -0.47522295 -0.38853693
000380 a6 06 e3 be eb 7b f6 be 2c 4c d8 bc aa 8d af 3c
       -0.4434101 -0.48141417 -0.02640351 0.021429855
000390 fa ca e5 be 56 5d 85 be 70 cf 42 be a3 ed 0a bf
       -0.4488142 -0.26047772 -0.19024444 -0.54268855
0003a0 66 2b 52 be 89 85 c3 be 0b 3f 3e bf d6 78 88 3e
       -0.20524368 -0.38187817 -0.74314946 0.2665469
0003b0 ac 47 2c be ee ca 0b be 7a eb 0d bf ac 0a 88 be
       -0.16824216 -0.1365163 -0.55437434 -0.26570642
0003c0 12 96 03 bf 12 b0 0a bf a3 10 23 bf 08 d4 99 be
       -0.51400864 -0.5417491 -0.6369726 -0.3004458
0003d0 cc 4a 51 3d f4 da 9b 3d 35 7d 66 bd eb ae f5 3c
       0.051096722 0.07610121 -0.05627175 0.029990634
0003e0 0c e0 c5 be 18 04 e5 3d 13 f8 02 bf 2a f1 00 be
       -0.38647497 0.111824214 -0.5115978 -0.12591997
0003f0 b6 07 7f 3e eb c2 4b be 63 4e 53 bd 9d 04 66 bd
       0.24905285 -0.19898574 -0.051588427 -0.056156743
