deploy/pre_train/g1/policy_lstm_1.pt (torch, 145745 bytes, 10 tensors)

hidden_state f4 [1, 1, 64]
0	0x00000000	0.0
1	0x00000000	0.0
2	0x00000000	0.0
3	0x00000000	0.0
4	0x00000000	0.0
5	0x00000000	0.0
6	0x00000000	0.0
7	0x00000000	0.0
8	0x00000000	0.0
9	0x00000000	0.0
10	0x00000000	0.0
11	0x00000000	0.0
12	0x00000000	0.0
13	0x00000000	0.0
14	0x00000000	0.0
15	0x00000000	0.0
16	0x00000000	0.0
17	0x00000000	0.0
18	0x00000000	0.0
19	0x00000000	0.0
20	0x00000000	0.0
21	0x00000000	0.0
22	0x00000000	0.0
23	0x00000000	0.0
24	0x00000000	0.0
25	0x00000000	0.0
26	0x00000000	0.0
27	0x00000000	0.0
28	0x00000000	0.0
29	0x00000000	0.0
30	0x00000000	0.0
31	0x00000000	0.0
32	0x00000000	0.0
33	0x00000000	0.0
34	0x00000000	0.0
35	0x00000000	0.0
36	0x00000000	0.0
37	0x00000000	0.0
38	0x00000000	0.0
39	0x00000000	0.0
40	0x00000000	0.0
41	0x00000000	0.0
42	0x00000000	0.0
43	0x00000000	0.0
44	0x00000000	0.0
45	0x00000000	0.0
46	0x00000000	0.0
47	0x00000000	0.0
48	0x00000000	0.0
49	0x00000000	0.0
50	0x00000000	0.0
51	0x00000000	0.0
52	0x00000000	0.0
53	0x00000000	0.0
54	0x00000000	0.0
55	0x00000000	0.0
56	0x00000000	0.0
57	0x00000000	0.0
58	0x00000000	0.0
59	0x00000000	0.0
60	0x00000000	0.0
61	0x00000000	0.0
62	0x00000000	0.0
63	0x00000000	0.0

cell_state f4 [1, 1, 64]
0	0x00000000	0.0
1	0x00000000	0.0
2	0x00000000	0.0
3	0x00000000	0.0
4	0x00000000	0.0
5	0x00000000	0.0
6	0x00000000	0.0
7	0x00000000	0.0
8	0x00000000	0.0
9	0x00000000	0.0
10	0x00000000	0.0
11	0x00000000	0.0
12	0x00000000	0.0
13	0x00000000	0.0
14	0x00000000	0.0
15	0x00000000	0.0
16	0x00000000	0.0
17	0x00000000	0.0
18	0x00000000	0.0
19	0x00000000	0.0
20	0x00000000	0.0
21	0x00000000	0.0
22	0x00000000	0.0
23	0x00000000	0.0
24	0x00000000	0.0
25	0x00000000	0.0
26	0x00000000	0.0
27	0x00000000	0.0
28	0x00000000	0.0
29	0x00000000	0.0
30	0x00000000	0.0
31	0x00000000	0.0
32	0x00000000	0.0
33	0x00000000	0.0
34	0x00000000	0.0
35	0x00000000	0.0
36	0x00000000	0.0
37	0x00000000	0.0
38	0x00000000	0.0
39	0x00000000	0.0
40	0x00000000	0.0
41	0x00000000	0.0
42	0x00000000	0.0
43	0x00000000	0.0
44	0x00000000	0.0
45	0x00000000	0.0
46	0x00000000	0.0
47	0x00000000	0.0
48	0x00000000	0.0
49	0x00000000	0.0
50	0x00000000	0.0
51	0x00000000	0.0
52	0x00000000	0.0
53	0x00000000	0.0
54	0x00000000	0.0
55	0x00000000	0.0
56	0x00000000	0.0
57	0x00000000	0.0
58	0x00000000	0.0
59	0x00000000	0.0
60	0x00000000	0.0
61	0x00000000	0.0
62	0x00000000	0.0
63	0x00000000	0.0

weight f4 [32, 64]
0	0x3f29cd26	0.66328657
1	0x3e490e6d	0.19634409
2	0x3f10c036	0.5654329
3	0x3f882769	1.0637027
4	0xbea2dabb	-0.31807503
5	0xbeb92570	-0.36161375
6	0x3faa7bd5	1.331904
7	0xbdf1e176	-0.118105814
8	0x3e5a3b03	0.21311574
9	0x3cd2189d	0.025646502
10	0xbea816c3	-0.32829866
11	0x3ec2a27c	0.3801459
12	0x3f6ffb08	0.9374242
13	0xbe99cd43	-0.30039415
14	0xbe75504c	-0.23956412
15	0x3d03e079	0.032196496
16	0xbdd500ae	-0.1040052
17	0xbf756e47	-0.95871395
18	0xbf347a83	-0.7049944
19	0x3d4e037d	0.050296295
20	0x3dfb1449	0.122597285
21	0xbc75cfc0	-0.015003145
22	0x3e637d70	0.2221582
23	0xbf01e142	-0.5073434
24	0xbec9159a	-0.39274293
25	0x3f6f416b	0.93459195
26	0xbfe633fd	-1.7984616
27	0x3ece93d5	0.40347162
28	0x3fec3dbc	1.845634
29	0x3ea129b9	0.31477144
30	0xbe583e8a	-0.21117607
31	0xbf4ae975	-0.7926248
32	0x3e3ae501	0.1825142
33	0xbedd42c8	-0.43215013
34	0x3e02d983	0.12778287
35	0xbda25eeb	-0.079282604
36	0x3e3ae437	0.1825112
37	0xbeb2bb6a	-0.3490861
38	0x3e2d55c3	0.16927247
39	0xbe308c34	-0.17240983
40	0x3f6cd6ff	0.9251556
41	0xbe3ac740	-0.1824007
42	0xbec2e25a	-0.38063318
43	0x3e7b0ebd	0.24517341
44	0x3f410b0a	0.7540747
45	0x3f2e1f0e	0.68016136
46	0x3e894a04	0.26814282
47	0x3c2c79b1	0.01052706
48	0xbecd58a1	-0.4010668
49	0xbebce1ba	-0.36890966
50	0x3f1857ce	0.5950898
51	0xbf0b3535	-0.5437806
52	0x3f14f919	0.5819259
53	0xbe311ba5	-0.17295702
54	0x3db630b7	0.0889601
55	0xbe38c079	-0.18042172
56	0x3f1c1fbe	0.60985935
57	0x3f43ec64	0.7653258
58	0x3edead3a	0.43491536
59	0x3e3898a5	0.1802698
60	0x3ccee5e8	0.025256112
61	0x3f6c59f6	0.9232477
62	0xbedde00f	-0.43335006
63	0x3f0c31d7	0.5476355
64	0x3c7176b6	0.014737776
65	0x3e24e5b4	0.1610325
66	0xbf4ae0ac	-0.7924907
67	0xbedbe7f9	-0.4295042
68	0x3e3f448c	0.18678492
69	0x3db2183c	0.086960286
70	0xbeb30594	-0.34965193
71	0x3e04e3ee	0.12977573
72	0xbe9aa73c	-0.30205715
73	0xbf2aa107	-0.6665196
74	0x3d363751	0.044486348
75	0x3f17a7bd	0.59240323
76	0x3facd710	1.3503132
77	0x3f11f61b	0.5701615
78	0xbdefc519	-0.11707515
79	0xbe326a2f	-0.17423318
80	0x3ea62e33	0.32457122
81	0xbd92edf8	-0.07174295
82	0xbe99e2dd	-0.30055895
83	0xbdc1057c	-0.09424874
84	0xbfff856e	-1.9962595
85	0x3f36d136	0.7141298
86	0x3f808b6d	1.0042549
87	0xbeb5a848	-0.3547995
88	0xbf1828d4	-0.594373
89	0xbf235edd	-0.63816625
90	0x3e422c2b	0.18962161
91	0xbd82b74f	-0.063826196
92	0xbf16f845	-0.5897258
93	0xbda567ff	-0.08076476
94	0xbf1a749b	-0.60334176
95	0x3f065ff6	0.52490175
96	0xbdd7f1ad	-0.10544143
97	0xbf5f9b32	-0.87346184
98	0x3f2f2893	0.68421286
99	0xbf118e5b	-0.5685784
100	0x3f992fc0	1.1967697
101	0xbefce94b	-0.49396738
102	0xbef0e7b8	-0.47051787
103	0xbe5711dc	-0.21002907
104	0xbf557e1e	-0.83395565
105	0x3f162c85	0.5866168
106	0x3f43d755	0.76500446
107	0x3e3f6a93	0.18692999
108	0xbfa12d4b	-1.2591947
109	0xbd135a4e	-0.035974793
110	0x3e9b94be	0.3038692
111	0x3f41db46	0.7572521
112	0x3e0cda2f	0.13755105
113	0xbf5e8c98	-0.8693328
114	0x3eac4e08	0.33653283
115	0xbe1cad0f	-0.15300392
116	0x3f15ac3a	0.5846592
117	0x3e367c4d	0.17820854
118	0x3f37187e	0.7152175
119	0x3e26e20e	0.1629717
120	0x3e0c4721	0.13699009
121	0xbecbb342	-0.397852
122	0xbe0c4808	-0.13699353
123	0x3dd3cd3e	0.10341881
124	0xbeed825c	-0.4638852
125	0xbe9dc349	-0.30813053
126	0x3edafd11	0.427712
127	0x3e6b9623	0.23006491
128	0x3dbc4946	0.09193663
129	0xbe0ed651	-0.13948943
130	0x3f1cb56f	0.61214346
131	0xbe5d98eb	-0.21640365
132	0x3e4bab0f	0.19889472
133	0x3f308ce9	0.6896501
134	0x3cd574c5	0.026056657
135	0x3f900d56	1.125407
136	0xbcce2616	-0.025164645
137	0x3f80f7f9	1.0075675
138	0x3ead7359	0.33877066
139	0xbd1e53d5	-0.038654167
140	0x3d9416bb	0.07230898
141	0xbd9ce52c	-0.076608986
142	0x3f3050a3	0.6887304
143	0x3e4b2e81	0.19841959
144	0x3e027e96	0.12743601
145	0xbe12b9ba	-0.14328662
146	0xbea95b70	-0.33077574
147	0xbf3d1914	-0.7386639
148	0xbe3b0c46	-0.182664
149	0xbf29a67f	-0.6626968
150	0xbf23111f	-0.63698
151	0x3e2ea238	0.17054069
152	0xbef15e8e	-0.47142452
153	0xbd1b18a3	-0.037865292
154	0x3f8a3731	1.0798093
155	0x3d608bfc	0.054821
156	0x3ecd7000	0.40124512
157	0xbd84ae76	-0.06478588
158	0x3e8d7213	0.27626094
159	0xbec32262	-0.3811217
160	0x3efcf554	0.4940592
161	0xbec12b74	-0.37728465
162	0x3ca653d1	0.020303639
163	0xbde7879c	-0.11305162
164	0x3e40afd8	0.18817079
165	0xbf530527	-0.82429737
166	0xbe954886	-0.29156893
167	0x3f39ce90	0.72580814
168	0xbe1fb4f8	-0.15596378
169	0x3e1ec2d4	0.15504009
170	0x3e3eecce	0.18645021
171	0x3f17ed94	0.5934689
172	0xbe710ba1	-0.23539592
173	0x3e30f016	0.17279086
174	0xbe7f4a60	-0.24930716
175	0xbe5a6aae	-0.21329758
176	0xbf373a63	-0.71573466
177	0xbe9b642c	-0.30349863
178	0xbfa27948	-1.2693262
179	0x3f5cc489	0.8623739
180	0x3dc31c25	0.095268525
181	0xbdc76621	-0.097362764
182	0xbd59daa9	-0.053187046
183	0x3ea6aa49	0.32551792
184	0x3cef5e62	0.02921981
185	0x3e27554f	0.16341136
186	0xbd4975c2	-0.04918457
187	0xbf5d7e7a	-0.8652111
188	0x3d9749e3	0.0738714
189	0x3f43f9f1	0.76553255
190	0xbc62d076	-0.013843646
191	0xbedd967b	-0.4327887
192	0x3ec055d9	0.37565497
193	0x3e68602a	0.22692934
194	0x3ed06f8d	0.40710106
195	0xbecb82f1	-0.39748338
196	0xbe87383d	-0.26410094
197	0x3eef32ed	0.4671854
198	0x3ed2139f	0.41030595
199	0x3e679bc8	0.2261802
200	0xbeea27ae	-0.45733398
201	0xbf1ba14f	-0.6079301
202	0xbe873318	-0.2640617
203	0xbebd13d4	-0.3692919
204	0xbf36b947	-0.7137646
205	0x3f13aad3	0.5768253
206	0x3e84f66e	0.2596926
207	0x3e9639b4	0.293409
208	0x3e1f7e29	0.1557547
209	0x3e97fb01	0.29683688
210	0x3df664a7	0.12030917
211	0x3d8e3bb2	0.0694498
212	0x3eef22f2	0.4670635
213	0x3ec6500e	0.38732952
214	0x3e4ad5b8	0.1980809
215	0x3e9edf7e	0.31029886
216	0x3f93f7e1	1.1560022
217	0x3d82721b	0.0636942
218	0xbfa5cda9	-1.2953387
219	0x3e46c4b9	0.19410981
220	0x3f4a4033	0.7900421
221	0x3e7b3074	0.24530202
222	0x3efd2f6e	0.49450248
223	0xbedcfb1d	-0.43160334
224	0xbf2cfc55	-0.6757253
225	0x3fc679c3	1.5505909
226	0x3e58f146	0.21185789
227	0xbe8b8ca7	-0.27255747
228	0x3f90b051	1.1303807
229	0x3e8b6586	0.27225894
230	0xbe29d2ed	-0.16584368
231	0xbdae0afb	-0.08498188
232	0x3f6316dc	0.88706756
233	0xbecec329	-0.4038327
234	0xbea9d096	-0.3316695
235	0xbee8cd70	-0.45469236
236	0x3e11fb61	0.1425605
237	0x3f8538e9	1.0407993
238	0x3e043113	0.12909345
239	0xbef37b1f	-0.4755487
240	0x3f56199f	0.83632845
241	0x3ecba46d	0.39773884
242	0x3f79a68f	0.97519773
243	0xbbf4f6dc	-0.007475717
244	0x3dba8ef5	0.09109298
245	0x3e00ff21	0.12597324
246	0x3f166a95	0.5875638
247	0x3e48dca3	0.19615416
248	0x3f123de8	0.5712571
249	0xbf8353af	-1.0259913
250	0xbf56e5f5	-0.83944637
251	0xbdabdd89	-0.08391864
252	0x3eddad83	0.4329644
253	0xbe3bb581	-0.18330957
254	0x3e044e24	0.12920433
255	0x3ed7e61d	0.4216775

bias f4 [32]
0	0xbe6fc6fe	-0.23415753
1	0x3dc0cfa0	0.09414601
2	0x3e9d42a6	0.3071491
3	0xbebc5fca	-0.3679183
4	0xbd847385	-0.06467346
5	0xbe3b8ee4	-0.18316227
6	0xbd40565b	-0.046957355
7	0x3e5bdacd	0.21470185
8	0x3d155efc	0.036467537
9	0xbd4fb054	-0.05070527
10	0xbd38b968	-0.045098692
11	0x3e1e0724	0.15432411
12	0xbe69e4ea	-0.2284123
13	0xbe538613	-0.20656614
14	0xbd47a961	-0.048745517
15	0xbc27f128	-0.010250367
16	0xbe38dec8	-0.18053734
17	0x3e83fc3e	0.25778383
18	0xbd2bfe3a	-0.041990496
19	0xbe923a9c	-0.2856034
20	0xbebe618b	-0.37183794
21	0xbdb3ffab	-0.08788999
22	0xbec0054e	-0.37504047
23	0xbf04dac9	-0.5189634
24	0xbe84bd39	-0.25925615
25	0xbe46f1cc	-0.19428176
26	0xbe6372db	-0.22211783
27	0x3cc5a928	0.024128512
28	0xbf0dd4bc	-0.5540273
29	0x3ed0d13a	0.40784627
30	0xbe90b294	-0.28261244
31	0xbe30949f	-0.17244194

weight f4 [12, 32]
0	0x3e9ab850	0.30218744
1	0xbe945bcb	-0.28976282
2	0x3d2be4ec	0.041966364
3	0xbedef037	-0.43542644
4	0x3e8031bd	0.25037947
5	0x3efb0f3d	0.49035063
6	0xbe4776be	-0.1947889
7	0x3d81da70	0.06340492
8	0xbe75a400	-0.23988342
9	0x3ec9ed3b	0.39438805
10	0xbe7f96d4	-0.2495988
11	0x3e00cff9	0.12579335
12	0xbeeaf150	-0.45887232
13	0xbe75dfb9	-0.24011125
14	0x3dd8d34a	0.10587175
15	0xbe8dd34c	-0.2770027
16	0xbe7ea3c7	-0.24867164
17	0xbeec4b20	-0.46151066
18	0xbd54f20f	-0.051988658
19	0x3cb94e68	0.022620395
20	0xbe843ea8	-0.25829053
21	0x3cb5c4a9	0.022188501
22	0xbdb856b8	-0.09000915
23	0x3ec1b5bf	0.37833974
24	0xbdacc06c	-0.08435139
25	0x3eee7c79	0.4657934
26	0x3d87b1b0	0.06625688
27	0x3ded63f9	0.11591334
28	0x3e59c934	0.21268159
29	0xbecc6e4c	-0.399279
30	0x3e9f1dbf	0.31077382
31	0xbaca7ffa	-0.0015449517
32	0xbe0a4843	-0.13504128
33	0x3eb33d5a	0.35007745
34	0x3b1fac57	0.0024364197
35	0xbe84e2e5	-0.25954357
36	0x3e6e8ffe	0.23297116
37	0x3e84357d	0.25822058
38	0x3e501bac	0.20323056
39	0x3e2e99ef	0.17050909
40	0x3d09ceb2	0.033644386
41	0x3e5c74fe	0.21529004
42	0x3d36889f	0.044563886
43	0x3ee3fc2c	0.4452833
44	0xbe48ce63	-0.1960998
45	0xbe441f29	-0.19152512
46	0x3d42749c	0.04747449
47	0xbe6cf60d	-0.23140736
48	0xbe0eb860	-0.13937521
49	0x3e27a5ab	0.16371791
50	0x3e41a9a4	0.18912369
51	0xbe27ea9a	-0.16398087
52	0xbe3aba36	-0.18235096
53	0x3e6b47aa	0.22976556
54	0x3ed84be7	0.4224541
55	0xbee123cc	-0.43972623
56	0xbd0161c9	-0.031587396
57	0x3e3dc697	0.18532787
58	0xbe847979	-0.25873926
59	0x3d6fb111	0.058518473
60	0xbe979f11	-0.29613546
61	0x3e8ff648	0.28117585
62	0x3d098e3b	0.033582907
63	0xbcb3c0da	-0.021942545
64	0x3c928e3e	0.017890092
65	0xbe6288a5	-0.22122438
66	0xbea07f9a	-0.31347352
67	0x3e9c3cec	0.3051523
68	0xbde2eda6	-0.11080484
69	0xbda43c36	-0.08019297
70	0xbd009046	-0.03138759
71	0xbe2abcae	-0.16673538
72	0xbe0866c7	-0.13320456
73	0xbe49058f	-0.19631027
74	0x3bbf4acb	0.0058377734
75	0xbd974e03	-0.073879264
76	0x3ca9cece	0.020728495
77	0xbdb40131	-0.0878929
78	0x3dc10bb4	0.0942606
79	0xbe3ba72f	-0.18325494
80	0x3e181bdd	0.14854379
81	0x3db01036	0.08596842
82	0xbe2ad1fb	-0.16681664
83	0x3e6ed25f	0.23322438
84	0x3df7ea91	0.12105287
85	0x3dda1e53	0.10650315
86	0x3e68856d	0.22707148
87	0xbe046f2e	-0.12933037
88	0x3e2aa9f7	0.16666399
89	0x3e871e66	0.2639038
90	0xbc17c070	-0.009262189
91	0x3d1ed69c	0.038778886
92	0x3da39f2b	0.07989343
93	0xbea99b59	-0.33126333
94	0xbd9ed0b7	-0.07754653
95	0xbd25a2cc	-0.04043846
96	0x3c8917ba	0.016734947
97	0xbe876544	-0.26444447
98	0x3d25353d	0.040333975
99	0x3d6b5ccd	0.05746155
100	0xbc86890e	-0.016422775
101	0x3ccc0626	0.024905276
102	0xbe267ebb	-0.16259281
103	0x3f29a786	0.66271245
104	0xbd0e77be	-0.034782164
105	0xbe932c0a	-0.28744537
106	0x3e5ea0bd	0.21741004
107	0xbc94fcf2	-0.01818702
108	0xbea948c4	-0.33063328
109	0x3e3bf6b5	0.1835583
110	0x3df510f2	0.11966123
111	0xbd8430b4	-0.06454602
112	0xbdd28382	-0.102789894
113	0x3dd63599	0.10459442
114	0x3ebd9a95	0.37032
115	0x3f179d43	0.5922434
116	0xbbc66ce7	-0.0060554626
117	0x3c16af4c	0.0091970675
118	0xbe9e6732	-0.30938107
119	0x3c914647	0.017733706
120	0x3e38c6fe	0.1804466
121	0x3e4f616a	0.20252004
122	0xbe36be94	-0.17846137
123	0x3e8bd0cc	0.27307737
124	0xbe6953db	-0.22785895
125	0x3d3f64ee	0.046727113
126	0x3d29d75c	0.04146515
127	0xbdde372e	-0.108503684
128	0x3e2c8bb5	0.16850169
129	0x3eda384b	0.42621073
130	0xbdb06111	-0.08612264
131	0xbca67af4	-0.0203223
132	0xbdf7831b	-0.12085553
133	0xbde687d4	-0.11256376
134	0x3e1b584c	0.15170401
135	0x3c624555	0.013810475
136	0x3df586b7	0.119885854
137	0xbefebdf6	-0.49754304
138	0xbea372fa	-0.31923658
139	0xbe61dc29	-0.2205664
140	0xbf4593b2	-0.7717849
141	0x3dd46ba1	0.10372091
142	0x3e761765	0.24032362
143	0x3e1c5030	0.15264964
144	0xbe873059	-0.26404074
145	0x3e41507b	0.18878357
146	0xbec29034	-0.38000643
147	0xbdc73d0a	-0.09728439
148	0xbd8b0564	-0.067881376
149	0x3e4c1980	0.19931602
150	0x3df5be7c	0.11999223
151	0x3ef0d1de	0.47035116
152	0xbedb8c17	-0.42880318
153	0x3e4d7986	0.20065889
154	0xbd371fe5	-0.04470815
155	0x3fa13b54	1.259623
156	0xbcafd533	-0.021463966
157	0xbd61c423	-0.05511869
158	0x3e61ebc1	0.22062589
159	0x3e7ae0da	0.24499837
160	0xbd7b543d	-0.061359633
161	0x3d833ac3	0.06407692
162	0xbea99536	-0.3312165
163	0xbd7141c8	-0.058900625
164	0x3ed22dfe	0.41050714
165	0x3db649f9	0.08900828
166	0xbe0a33ca	-0.13496318
167	0x3dd5dd7a	0.10442634
168	0x3c39547b	0.011311646
169	0x3dca257f	0.09870433
170	0xbd674d5d	-0.056470264
171	0xbc75408d	-0.014969003
172	0x3e729123	0.23688178
173	0xbd773f93	-0.060363363
174	0x3ddfc242	0.109257236
175	0x3d255530	0.040364444
176	0xbe3d4a0e	-0.18485281
177	0x3db59aa8	0.08867389
178	0x3d0a33a5	0.03374066
179	0xbda25d10	-0.079279065
180	0xbe157e69	-0.14599003
181	0xbf38a4c0	-0.7212639
182	0xbef00bb8	-0.4688394
183	0xbf3b1b3d	-0.7308844
184	0xbeeddc2c	-0.4645704
185	0xbe4070ab	-0.1879298
186	0xbe329afe	-0.17441937
187	0x3ebebba8	0.37252545
188	0x3e58254f	0.21107982
189	0x3ce339e4	0.027737565
190	0x3d708656	0.058721863
191	0xbdcc3ead	-0.09972892
192	0xbf000fcc	-0.50024104
193	0x3ef7eeeb	0.48424467
194	0xbf2a81c8	-0.6660428
195	0x3eccb1fe	0.39979547
196	0xbe1145fa	-0.1418685
197	0xbec8e2e1	-0.39235595
198	0xbd70f41f	-0.058826562
199	0xbe0e69a2	-0.13907483
200	0x3e948c15	0.29013124
201	0x3c5d1794	0.013494391
202	0xbc83e769	-0.016101556
203	0xbe4b6cd2	-0.1986573
204	0x3dd90681	0.10596944
205	0xbdbcfdef	-0.092281215
206	0x3db66644	0.08906224
207	0x3efbdbf0	0.49191236
208	0xbddeb7cf	-0.108749025
209	0xbef34c4e	-0.47519153
210	0x3e892636	0.26786965
211	0xbf0221ef	-0.5083303
212	0x3d334c28	0.0437738
213	0x3e6d5c4b	0.23179738
214	0x3e89ce08	0.26915002
215	0xbe9b11e5	-0.3028709
216	0x3ea8d780	0.32976913
217	0xbea1a5ea	-0.31571895
218	0x3dcccd0a	0.100000456
219	0xbe536d22	-0.206471
220	0xbd6730cb	-0.056443017
221	0x3e052e50	0.13005948
222	0x3dcdfb02	0.100576416
223	0xbc1359c2	-0.008993568
224	0x3dd20d4b	0.10256442
225	0xbd723533	-0.059132766
226	0x3d32ee62	0.04368437
227	0xbe05361e	-0.13008925
228	0xbe96be5e	-0.29442114
229	0xbcfe38f1	-0.031033011
230	0xbe27f36a	-0.16401449
231	0x3d8faa5a	0.07014914
232	0x3eed3423	0.4632884
233	0x3e38a0f9	0.18030156
234	0x3db7ac95	0.08968464
235	0xbefbc7aa	-0.4917577
236	0x3eb33bde	0.35006613
237	0xbe152c7b	-0.14567749
238	0xbeaeb444	-0.34121907
239	0x3b928d14	0.004472384
240	0xbdd6e2c2	-0.10492469
241	0x3c8b8282	0.017030004
242	0xbebf62ed	-0.37380162
243	0x3e45e817	0.19326816
244	0xbdad8cdd	-0.08474133
245	0xbe57c414	-0.21070892
246	0x3e946499	0.28983
247	0x3c5615d5	0.013066729
248	0x3db78128	0.089601815
249	0xbd1ea84a	-0.03873471
250	0x3e25d778	0.16195476
251	0x3e62b704	0.22140127
252	0x3ed483c8	0.4150679
253	0xbd9fccb5	-0.07802717
254	0x3cc2739e	0.023736771
255	0xbecf8df1	-0.4053798

bias f4 [12]
0	0xbf0b5944	-0.54433084
1	0x3eb85eaf	0.36009738
2	0xbe4189b5	-0.18900187
3	0x3f7d3490	0.9890833
4	0x3d80598d	0.062670805
5	0xbe5fe859	-0.21865977
6	0xbf22b05d	-0.6355036
7	0xbd4b6cc9	-0.049664292
8	0x3e1453a6	0.14485034
9	0x3f3a1896	0.72693765
10	0x3d7ac715	0.061225016
11	0x3d54cc6d	0.051952768

weight_ih_l0 f4 [256, 47]
0	0xbf4d3baf	-0.80169195
1	0xc05109cf	-3.2662237
2	0xbf8157f8	-1.0104971
3	0xc0801abd	-4.003264
4	0xbefaac3c	-0.4895953
5	0x3f48b74c	0.7840469
6	0x39082618	0.00012984162
7	0xbdc4c0d6	-0.09607093
8	0xbfa36e8e	-1.2768114
9	0xbee5d142	-0.44886214
10	0x3eb78ddf	0.35850427
11	0xbe3a8035	-0.1821297
12	0xbcd1246d	-0.025530064
13	0x3e1bf1c7	0.1522895
14	0x3e42566a	0.18978277
15	0x3f4b50af	0.7941999
16	0xbe000863	-0.125032
17	0xbec52218	-0.38502574
18	0x3e97710a	0.2957843
19	0xbf04ea48	-0.51919985
20	0x3e640419	0.22267188
21	0x3f7abdee	0.9794606
22	0x3f42efdb	0.7614724
23	0xbfa3ad52	-1.2787268
24	0x3f495818	0.78650045
25	0x3ed0d9ab	0.40791067
26	0xbc080111	-0.0083010355
27	0xbff32408	-1.8995371
28	0xbcd0c5c5	-0.025484929
29	0x3e3bd740	0.1834383
30	0xbf1bad73	-0.6081154
31	0x3f150c01	0.5822144
32	0x3e92bc58	0.2865932
33	0x3b865054	0.0040989313
34	0x3e30dd49	0.17271914
35	0x3e1f6bc4	0.15568453
36	0x3d158d28	0.03651157
37	0x3ce3edf4	0.027823426
38	0xbcbe8e15	-0.02326111
39	0xbe4c893d	-0.19974227
40	0x3da4a857	0.08039921
41	0xbe44ac16	-0.1920627
42	0xbe1676b4	-0.14693719
43	0x3e0769f1	0.13224007
44	0xbdc1bb03	-0.09459498
45	0x3cb9501a	0.022621203
46	0xbd87b155	-0.0662562
47	0xbf41d9ab	-0.7572276
48	0x3f9a7432	1.206671
49	0xbd1d6bfd	-0.038433064
50	0x3ecb2ee1	0.39684203
51	0x3f40ed53	0.7536213
52	0x3f28a7c0	0.65880966
53	0xbe92f193	-0.28699932
54	0xbdd70d61	-0.10500599
55	0xbe14b635	-0.14522631
56	0x3ff9f9e0	1.9529381
57	0xbfea1a7b	-1.8289331
58	0x3f8fe738	1.1242437
59	0x3f15ecf8	0.5856471
60	0x3ee748d1	0.45172742
61	0xbe0319b5	-0.12802775
62	0xc01b3758	-2.425253
63	0xbdb16d03	-0.086633705
64	0x3f312956	0.692037
65	0xbf3a1122	-0.7268239
66	0x3f52c838	0.8233676
67	0xbe53436e	-0.20631191
68	0x40a1473f	5.039947
69	0xc019bf5b	-2.4023044
70	0x3f1bca14	0.6085522
71	0x40000990	2.0005836
72	0xbf1efba6	-0.62102735
73	0xbe33d57a	-0.17561904
74	0xc057cda0	-3.3719254
75	0x3d2370ca	0.039902486
76	0xbea58bde	-0.32333273
77	0xbfe2a1ce	-1.7705629
78	0x3f52e746	0.82384145
79	0x3decd5db	0.11564227
80	0x3e15b247	0.14618789
81	0x3e0e8985	0.13919647
82	0x3c8d7fc7	0.017272843
83	0x3e9c1db7	0.3049142
84	0x3de7f735	0.11326448
85	0xbcd932ea	-0.026513536
86	0x3d95bbd3	0.07311215
87	0x3da3ac11	0.079918034
88	0xbe8098c0	-0.2511654
89	0xbe496fa4	-0.19671494
90	0xbe427b63	-0.18992381
91	0xbd4c05e9	-0.049810324
92	0xbe2ae1bc	-0.16687673
93	0x3e271b78	0.16319072
94	0xbf6fab92	-0.9362117
95	0xbfac62fc	-1.3467708
96	0xbfa079d8	-1.2537184
97	0xbef1acf0	-0.47202253
98	0x40254f65	2.5829709
99	0xbe8674df	-0.2626104
100	0xbf6f33f7	-0.9343867
101	0xbf5d3c1a	-0.8641983
102	0xbfddc255	-1.732493
103	0x3fb24eee	1.3930337
104	0x3e85e996	0.26154774
105	0xbf943be4	-1.1580777
106	0x3fa0564c	1.2526336
107	0xbed2154f	-0.41031882
108	0xbe145edc	-0.14489311
109	0xbe877f17	-0.2646415
110	0x3f910826	1.1330612
111	0x4009b59f	2.1517103
112	0x3fc23a0d	1.5173966
113	0xbf8b6dad	-1.0892845
114	0xbf6a91e3	-0.91628855
115	0xbeb9f950	-0.36323023
116	0xbed44c87	-0.41464636
117	0x3f7d7397	0.990045
118	0x3fcc1f14	1.5946984
119	0xbe61e87d	-0.22061343
120	0x3f05879e	0.5216006
121	0x4032f00c	2.7959013
122	0xc018fe29	-2.3905127
123	0xbfb19191	-1.3872548
124	0xbcb4fd86	-0.022093546
125	0x4009894c	2.149005
126	0x3ed77b9b	0.4208649
127	0xbeb2f109	-0.3494952
128	0xbdb83089	-0.08993632
129	0x3e3dd468	0.18538058
130	0x3ec2ea21	0.3806925
131	0x3eb87f7c	0.36034763
132	0xbf04e75e	-0.5191554
133	0x3e606b15	0.21915849
134	0xbe93cc0f	-0.28866622
135	0x3f08c54d	0.5342606
136	0x3e032606	0.12807474
137	0x3f6020b4	0.875499
138	0xbec45d1b	-0.38352284
139	0x3efb7e05	0.49119583
140	0xbf5d3f16	-0.86424387
141	0x3f8b8be3	1.0902065
142	0xbe8a44ab	-0.27005515
143	0x3f5c5393	0.86065024
144	0xc0234eb8	-2.5516796
145	0xbe24bb31	-0.16087033
146	0x3f44e0a1	0.76905257
147	0xbd138b6f	-0.036021646
148	0x3e4fad53	0.20280962
149	0xbfa10c3b	-1.2581857
150	0xc019f473	-2.405545
151	0xbe9c031d	-0.30471125
152	0xbed80ea8	-0.42198682
153	0xbe2e357e	-0.17012593
154	0xbecc0678	-0.39848685
155	0xbdccc9c7	-0.099994235
156	0x400d0444	2.2033854
157	0xbf8707f0	-1.0549297
158	0x3f82407a	1.0175927
159	0xbefc0ec0	-0.49230003
160	0x3e90dd4e	0.28293842
161	0x3da1c704	0.07899287
162	0xc074ebad	-3.8268845
163	0x3d93d891	0.07219041
164	0x3f5af1c3	0.8552515
165	0xbfde2281	-1.735428
166	0xbe84ce34	-0.2593857
167	0xbb6da8e2	-0.0036263992
168	0x3ec7e105	0.39038864
169	0x3e39acdf	0.18132351
170	0xbe8595f9	-0.26090983
171	0x3e54293f	0.20718859
172	0x3db507cd	0.088393785
173	0x3e7ba716	0.24575457
174	0xbd3d6acf	-0.04624444
175	0x3e713ebb	0.23559086
176	0xbdfb4bd9	-0.12270326
177	0xbe59bda4	-0.21263748
178	0xbb94c592	-0.004540154
179	0xbc364d4c	-0.011126827
180	0x3c0ae4ed	0.008477432
181	0x3d531667	0.051535036
182	0xbe322056	-0.17395148
183	0x3e6ca17a	0.23108473
184	0xbbe5cd6d	-0.007013014
185	0xbc952d59	-0.0182101
186	0x3ec39983	0.38203058
187	0x3e02b6d7	0.1276506
188	0xbf3884b2	-0.72077477
189	0x3fecc6d7	1.8498181
190	0x3f10b48d	0.565255
191	0x3f4858a7	0.7826027
192	0x3e088089	0.13330282
193	0x3eb05cd8	0.34445834
194	0xbd2c4d43	-0.04206587
195	0x3f1ead1b	0.6198289
196	0xbf57dfed	-0.8432606
197	0x3f83db76	1.0301349
198	0x3f2a51b1	0.665309
199	0x3f0b8b6c	0.54509616
200	0xbec8d0e0	-0.3922186
201	0xbfa65719	-1.299533
202	0x3e4c9f0e	0.1998255
203	0x3f47e525	0.7808402
204	0xbec3904c	-0.38196027
205	0xbf602a63	-0.87564677
206	0x3efc80c6	0.49316996
207	0x3e808e4d	0.25108567
208	0xbf75c406	-0.96002233
209	0x3fa29b28	1.27036
210	0x3f5ffc57	0.87494415
211	0xbe8dfc59	-0.27731588
212	0xbe81fb27	-0.25386927
213	0xbf6504b0	-0.8946028
214	0xbe774f6f	-0.24151395
215	0xbf0ddbbe	-0.55413425
216	0xbfba1ed5	-1.4540659
217	0x3fa136d5	1.2594858
218	0xbf0db52c	-0.5535457
219	0x3df83680	0.1211977
220	0xbf386fe7	-0.7204575
221	0x3e55a5cb	0.20864026
222	0xbe0730e6	-0.13202247
223	0x3d9e2759	0.07722349
224	0x3ebf5b65	0.37374416
225	0x3c187635	0.0093055265
226	0x3c0d0ec3	0.0086094765
227	0x3df54016	0.11975114
228	0xbdbba316	-0.091619655
229	0x3e25c4ae	0.16188309
230	0xbe05d209	-0.13068403
231	0x3c98fddf	0.018675743
232	0x3dcbead7	0.099569015
233	0x3f278f80	0.6545334
234	0x3f0e58fb	0.55604523
235	0x3e8f5928	0.27997708
236	0xc011e3e4	-2.2795343
237	0xbed7e0ae	-0.42163604
238	0xbf3600ab	-0.7109477
239	0xbfee9a51	-1.8640844
240	0xbe92a056	-0.28637952
241	0x3f029620	0.5101032
242	0x3e3a20ac	0.18176526
243	0x3d90e44c	0.07074794
244	0xbf2bc37d	-0.67095166
245	0xc009f60f	-2.1556432
246	0xbf2248cc	-0.6339233
247	0x3eaba666	0.3352539
248	0xbeaba704	-0.3352586
249	0xbe892ba3	-0.26791105
250	0xbfb83d34	-1.4393678
251	0x3fb4cf6d	1.4125801
252	0xc082b685	-4.08478
253	0x400252b8	2.0362988
254	0xbef9c86b	-0.4878572
255	0xbdcb33a1	-0.09921957

weight_hh_l0 f4 [256, 64]
0	0x3efc2a13	0.4925085
1	0xbfe9f216	-1.8277004
2	0x3eeb900a	0.4600833
3	0xbf95ec63	-1.1712765
4	0x3dd8ae45	0.10580114
5	0xbecc6d09	-0.39926937
6	0xbf7145f7	-0.9424738
7	0xbdebcb27	-0.115133576
8	0xbfae4e93	-1.3617729
9	0x3f84c6df	1.0373191
10	0xbc7bd498	-0.0153705105
11	0x3f800270	1.0000744
12	0x3f673917	0.9032149
13	0x3d4b0a01	0.049570087
14	0x3e90ce70	0.282825
15	0x3e958801	0.29205325
16	0xbe3da3b7	-0.18519484
17	0xbe90d304	-0.28285992
18	0x3faabe3d	1.3339306
19	0xbf4c3d07	-0.7978062
20	0xbf412c5a	-0.754583
21	0xbdec1f12	-0.11529364
22	0xbf2fe005	-0.687012
23	0x3e1ea47d	0.15492435
24	0xbe9b7630	-0.30363607
25	0xbc6ba249	-0.0143819535
26	0xbdb57e80	-0.088620186
27	0xbfe7efd1	-1.8120061
28	0xbf80419f	-1.0020026
29	0x3eb87513	0.3602682
30	0x3eac4c2d	0.33651868
31	0xbe865aee	-0.2624125
32	0xbef67047	-0.48132536
33	0x3eace74d	0.33770218
34	0x3f1fa8d4	0.62366986
35	0x3e4e0861	0.20120384
36	0xbc737973	-0.014860499
37	0xbf32cec0	-0.69846725
38	0xbf0ed4a4	-0.55793214
39	0x3f0a1151	0.5393267
40	0x3e1b0bde	0.15141246
41	0x3f55e028	0.8354516
42	0xbd218d01	-0.039441112
43	0x3eb946c7	0.3618681
44	0xbfae9a92	-1.3640921
45	0x3e65487c	0.22390932
46	0xbf710ef4	-0.9416344
47	0xbe2ea3c3	-0.17054658
48	0xbf2c43c3	-0.67290896
49	0x3e7eb847	0.24874984
50	0x3f3f006c	0.7461002
51	0xc018ced2	-2.3876233
52	0xbf2457ed	-0.64196664
53	0x3f0daeff	0.5534515
54	0x3c985ff9	0.01860045
55	0x3e9460ad	0.28980008
56	0xbe93a68e	-0.2883801
57	0x3d7841c5	0.060609598
58	0xbf2504ac	-0.64460254
59	0x3f410abb	0.75407
60	0xbf81a4d7	-1.012843
61	0xbd47405f	-0.048645373
62	0xbdd5f9cf	-0.10448038
63	0xbe78e3c8	-0.24305642
64	0x3e22d9ce	0.15903398
65	0xbf3ec293	-0.74515647
66	0xbe96beb2	-0.29442364
67	0x3ec0ec71	0.3768039
68	0xbf2dfae6	-0.67960966
69	0x3e113278	0.14179409
70	0x3ec327f3	0.38116416
71	0xbea4e3e1	-0.32205108
72	0xbf2962cf	-0.66166395
73	0x3f40e6e3	0.75352305
74	0x3d8a248f	0.06745254
75	0x3f4660dc	0.77491546
76	0xbf42b66b	-0.760596
77	0x3f43abd3	0.7643406
78	0xbe9ac993	-0.30231914
79	0xbfad2da6	-1.3529556
80	0xbe40a7f3	-0.18814068
81	0xbdf6590e	-0.120287046
82	0x3ee9b395	0.45644823
83	0xbf840271	-1.0313245
84	0xc0134226	-2.3009124
85	0x3e88865b	0.26665005
86	0xbd3b9e45	-0.045805234
87	0x3e378637	0.17922293
88	0x3df950f5	0.121736445
89	0x3f40ae41	0.7526589
90	0xbe3acc68	-0.18242037
91	0xbf19aa44	-0.6002543
92	0x3d1a4fb0	0.037673652
93	0x3ee35843	0.44403276
94	0xbfaae93c	-1.3352427
95	0xbf0415b2	-0.51595604
96	0xbe2e6e6c	-0.1703431
97	0x3e3bb099	0.18329085
98	0x3f4d36b3	0.8016159
99	0xbf3b4503	-0.7315218
100	0xbd2c5762	-0.042075522
101	0xbde624c3	-0.112374805
102	0x3e054b4a	0.13017002
103	0xbcec72f0	-0.0288634
104	0x3d5603c8	0.0522497
105	0x3ef1137e	0.47085184
106	0xbe485148	-0.19562256
107	0x3f153b48	0.5829358
108	0xbf1b20a9	-0.6059671
109	0xbe709acd	-0.23496552
110	0xbdde1d83	-0.10845473
111	0xbe291c55	-0.16514714
112	0x3f4ce85b	0.80042046
113	0xbddbc7b4	-0.1073145
114	0xbf8483a8	-1.0352678
115	0x3f463544	0.77425027
116	0xbd91a380	-0.07111263
117	0x3ea875eb	0.32902464
118	0x3ea70064	0.32617486
119	0x3e0710e0	0.13190031
120	0x3e61d996	0.22055659
121	0xbebf478a	-0.37359267
122	0x3f1152f2	0.5676719
123	0x3d9d59a3	0.076831125
124	0x3e133e53	0.14379244
125	0x3deb65af	0.11494004
126	0xbe4d2904	-0.20035177
127	0xbf9595f2	-1.1686385
128	0x3ea200f6	0.31641358
129	0xbf3c34c8	-0.7351804
130	0x3f0e6430	0.55621624
131	0xbfc6a2f1	-1.5518476
132	0xbedd941a	-0.43277055
133	0x3e71d182	0.23615077
134	0xbfc6053c	-1.5470347
135	0x3fa3b9cc	1.2791076
136	0xc0241dbb	-2.5643146
137	0x3ee9f573	0.45695075
138	0xbf1a3d87	-0.60250133
139	0xbf9c46c5	-1.2209097
140	0xbfbd7b02	-1.4803164
141	0xbfbeeb62	-1.4915583
142	0x3f2a9e4f	0.6664781
143	0xbdf26d18	-0.11837214
144	0xbeb20f33	-0.3477722
145	0xbf39f144	-0.7263377
146	0x3e6065ae	0.21913788
147	0x3f6937c4	0.91100717
148	0x3f5979ce	0.84951484
149	0xbe242563	-0.16029887
150	0x3f8ab1c6	1.0835502
151	0x3f691ed7	0.9106268
152	0x3d7ecdf2	0.062208124
153	0x3f39d0ed	0.7258442
154	0x3f8ea7ef	1.1144999
155	0x3ff4c542	1.9122698
156	0x3e512784	0.2042523
157	0x3e934f0e	0.2877125
158	0xbf0d8938	-0.55287504
159	0xbfd9eb97	-1.7025021
160	0xbfcbac96	-1.5912044
161	0x3eb4e2ed	0.3532938
162	0x3d1df997	0.038568106
163	0xbdb0d553	-0.08634438
164	0xbfae4d6a	-1.3617375
165	0xbe23aee5	-0.15984686
166	0xbf4f3a1a	-0.8094803
167	0xbf98e546	-1.1944969
168	0xbe0de4ab	-0.13856761
169	0xbf9938fd	-1.1970516
170	0x3d90d684	0.070721656
171	0xbf24d61e	-0.64389217
172	0x3f0d3554	0.551595
173	0x3f797970	0.97450924
174	0xbfa8be78	-1.3183126
175	0xc018cb34	-2.3874025
176	0x3ec4ccf8	0.3843763
177	0x3e0216f1	0.12704064
178	0xbf344d74	-0.70430684
179	0x3d9e75e3	0.07737329
180	0x3fc7e6a3	1.561726
181	0xbf741bf3	-0.9535515
182	0xbf11917f	-0.56862634
183	0xbf2e9b54	-0.6820576
184	0x3fbebac6	1.4900749
185	0x3f503883	0.8133623
186	0xbf17776f	-0.59166616
187	0xbe6a8d53	-0.22905473
188	0xbe5f39e4	-0.21799427
189	0xbf99a8ce	-1.200464
190	0x3f48e5af	0.7847547
191	0x3f6c1ec7	0.9223446
192	0x3f0b1eb0	0.543437
193	0x3f5287d4	0.8223851
194	0xbd2da136	-0.04239007
195	0xbd235499	-0.0398756
196	0x3f49cffb	0.7883298
197	0xbc3c8dd8	-0.011508428
198	0xbbac061a	-0.005249751
199	0x3e41d193	0.18927602
200	0xbf1c9e4a	-0.6117903
201	0xbea8091b	-0.32819447
202	0x3f4d707c	0.8024976
203	0x3c7296c4	0.014806453
204	0xbf1d5336	-0.61455095
205	0xbd16bde3	-0.036802184
206	0x3f2b30b9	0.6687122
207	0xbe04de6a	-0.12975469
208	0xbed36eb3	-0.41295394
209	0x3f6443b6	0.8916582
210	0xbe63dc66	-0.22252044
211	0xbda62dfb	-0.08114239
212	0x3fa52d30	1.2904415
213	0xbed24857	-0.41070816
214	0xbfa85237	-1.315009
215	0x3f05de56	0.5229238
216	0x3f5126ab	0.8169963
217	0x3d3cfbb7	0.04613849
218	0x3e1526b4	0.14565545
219	0x3f2df489	0.67951256
220	0x3e970a4a	0.29500037
221	0xbd763cc2	-0.060116537
222	0x3ee559fd	0.44795218
223	0x3ec09bbc	0.37618816
224	0xbe9c0204	-0.30470288
225	0xbe22d027	-0.15899716
226	0x3f91c936	1.138953
227	0xbf1ba52d	-0.60798913
228	0x3d577672	0.052603193
229	0x3eb4a6e1	0.35283569
230	0x3e3015df	0.17195843
231	0x3d79a441	0.06094766
232	0x3e8a9254	0.27064764
233	0x3ea0ae04	0.31382763
234	0x3e7b793e	0.24557969
235	0x3ec89682	0.39177328
236	0x3e0f3c22	0.13987783
237	0xbe2a2e09	-0.16619124
238	0x3edf8d01	0.43662265
239	0x3dfa9b7c	0.122366875
240	0xbe89179d	-0.26775828
241	0x3cf5cf8c	0.030006193
242	0x3d89c62e	0.06727253
243	0x3e9e8d23	0.30967054
244	0x3ef39138	0.4757173
245	0x3d7ab224	0.061205044
246	0x3ec7cda1	0.3902407
247	0x3d2a7ef9	0.041624997
248	0xbe8864b8	-0.26639342
249	0xbe9b7732	-0.30364376
250	0xbf71469e	-0.9424838
251	0xbf56f34d	-0.83965
252	0x3d2592b4	0.04042311
253	0x3ea15e8f	0.31517455
254	0xbee557d0	-0.44793558
255	0xbf641900	-0.89100647

bias_ih_l0 f4 [256]
0	0xbf0dfc56	-0.5546316
1	0xbf376452	-0.7163745
2	0x3d7fef1d	0.062483896
3	0xbf4266af	-0.7593793
4	0xbeadc700	-0.33940887
5	0xbe8dd548	-0.27701783
6	0xbeee50a7	-0.46545908
7	0xbed138a3	-0.40863523
8	0xbf0391fc	-0.5139463
9	0xbdde9d3e	-0.10869835
10	0xbf4bf8de	-0.79676616
11	0xbea35d7f	-0.3190727
12	0xbf52d2a5	-0.8235267
13	0xbf3e74d9	-0.74397045
14	0x3e974a5c	0.2954892
15	0xbeff72e2	-0.49892336
16	0xbef557dc	-0.47918594
17	0xbe06810b	-0.13135163
18	0xbf4bda88	-0.7963033
19	0xbef03342	-0.46914107
20	0x3ce547af	0.027988283
21	0xbf39a549	-0.7251783
22	0x3daf58b7	0.08561843
23	0xbf2167e0	-0.63049126
24	0xbf1883b6	-0.59575975
25	0xbeda1cd7	-0.42600128
26	0xbcc7c536	-0.02438603
27	0xbead3d98	-0.33836055
28	0xbe9d430e	-0.3071522
29	0x3ecbbb25	0.39791217
30	0xbeed031a	-0.4629143
31	0xbf0c98ec	-0.5492084
32	0xbe67eab6	-0.22648129
33	0xbf870b96	-1.0550411
34	0x3eae00e4	0.33985054
35	0xbf21376c	-0.6297519
36	0xbde071a2	-0.10959174
37	0xbe9da21b	-0.3078774
38	0xbd590ab2	-0.052988715
39	0xbe4bcf42	-0.19903281
40	0x3dd485bb	0.103770696
41	0xbf857fde	-1.0429647
42	0x3e298387	0.1655408
43	0x3f9b3845	1.2126547
44	0xbedb2360	-0.42800426
45	0xbec5561c	-0.3854226
46	0xbf3a6e66	-0.72824705
47	0xbf22cad9	-0.6359077
48	0xbec7bc78	-0.39010978
49	0xbebd4f92	-0.3697477
50	0x3dd77d01	0.105218895
51	0xbf1d5bb6	-0.61468065
52	0xbe2b1534	-0.16707307
53	0xbe80ef6d	-0.25182667
54	0xbf1efca9	-0.6210428
55	0xbef24aa4	-0.4732257
56	0xbeb3abd8	-0.35092044
57	0xbe804a0f	-0.25056502
58	0x3d13505c	0.03596531
59	0xbea4e6f1	-0.32207444
60	0xbf2de576	-0.67928255
61	0xbf54519f	-0.82937044
62	0xbd8754e6	-0.0660799
63	0xbe908adf	-0.2823095
64	0x3ee415e2	0.44547945
65	0x3d7f2181	0.06228781
66	0xbf5705f8	-0.8399348
67	0xbe2c3305	-0.16816337
68	0xbe20db25	-0.15708597
69	0xbfa2111d	-1.2661473
70	0xbf6cde9d	-0.9252718
71	0xbf70b314	-0.9402325
72	0x3d049abf	0.03237414
73	0xbf4e17a8	-0.80504847
74	0xbf406516	-0.75154245
75	0xbef56b0f	-0.47933242
76	0xbf03c7f3	-0.51476973
77	0xbf531f03	-0.82469195
78	0xbfc0e9ad	-1.5071312
79	0xbe8789b9	-0.26472262
80	0x3ec1ecbc	0.37875926
81	0xbf50a06a	-0.8149477
82	0x3ec9f88b	0.39447436
83	0x3eec646c	0.46170366
84	0xbf2faedb	-0.68626183
85	0xbcc39bd9	-0.023878025
86	0xbf3b1c5f	-0.73090166
87	0x3ea07562	0.31339556
88	0x3e62b1bf	0.22138117
89	0x3e8cd374	0.27505076
90	0xbf279039	-0.6545444
91	0xbdfde504	-0.12397197
92	0xbefa7f80	-0.489254
93	0x3d4816cc	0.048849866
94	0xbe844637	-0.2583482
95	0xbfabb547	-1.3414696
96	0xbf40e548	-0.75349855
97	0x3e5161a2	0.204474
98	0xbfdaac8c	-1.7083907
99	0xbeacdea3	-0.33763608
100	0xbef5fe0c	-0.48045385
101	0xbed72dde	-0.4202718
102	0xbfc4ed7d	-1.5384976
103	0x3f2fceaa	0.6867472
104	0xbf389d58	-0.7211509
105	0xbf059ced	-0.52192575
106	0xbf065a38	-0.5248141
107	0x3ec7e9c3	0.39045534
108	0xbe8b99d0	-0.27265787
109	0xbf34b5dd	-0.7059
110	0xbed2814b	-0.41114268
111	0xbf286214	-0.65774655
112	0xbf2823d2	-0.6567966
113	0xbf4901f4	-0.78518605
114	0xbfcf708d	-1.6206223
115	0x3dbf0fb2	0.093291655
116	0xbf17f41c	-0.59356856
117	0xbeb64de2	-0.35606295
118	0xbea10263	-0.31447133
119	0xbe1b73b5	-0.15180857
120	0xbfb340e6	-1.400418
121	0xbf926420	-1.1436806
122	0xbf42f285	-0.76151305
123	0xbf1c17f0	-0.60974026
124	0x3ebc83c1	0.3681927
125	0xbf44d40b	-0.7688605
126	0xbf45f01f	-0.7731952
127	0x3e7fdf86	0.24987611
128	0xbdd2ede3	-0.102992795
129	0xbea34c3b	-0.31894097
130	0x3dbf87c8	0.0935207
131	0x3eb6bed7	0.35692474
132	0xbf102f33	-0.5632202
133	0x3e8b4dd7	0.27207825
134	0xbe7e901a	-0.24859658
135	0x3c5af6d0	0.013364509
136	0x3ec6c9de	0.38825887
137	0xbe003bd8	-0.12522829
138	0xbda825f4	-0.08210364
139	0xbe8af9a3	-0.27143583
140	0xbe27b008	-0.16375744
141	0xbdce713a	-0.1008019
142	0xbe45292b	-0.19253986
143	0xbe8542d4	-0.26027548
144	0x3d31036f	0.043216165
145	0xbf029819	-0.5101333
146	0xbe6f6640	-0.23378849
147	0xbe75cf9e	-0.24004981
148	0xbe92ef46	-0.28698176
149	0x3e22deda	0.15905324
150	0x3e7e61f9	0.24842061
151	0x3cbdf1f6	0.023186665
152	0xbe0079af	-0.12546419
153	0x3ec3d5b8	0.38248992
154	0x3e9fb64f	0.31193778
155	0x3f317ae6	0.69328153
156	0xbf909e96	-1.1298397
157	0xbe8b030d	-0.27150765
158	0xbec9c4f2	-0.3940807
159	0xbec4119b	-0.38294682
160	0x3e96863a	0.29399282
161	0x3cf2112b	0.029549202
162	0xbec7ec9e	-0.39047712
163	0x3dd69b2a	0.10478814
164	0x3ea3a352	0.3196054
165	0x3f01c5c9	0.5069242
166	0xbda48bcf	-0.08034479
167	0x3b96afc2	0.0045985887
168	0xbee970f1	-0.4559398
169	0xbe1173e1	-0.1420436
170	0x3e95da20	0.2926798
171	0xbfe7685c	-1.8078723
172	0x3e19dd22	0.15025762
173	0xbe079b3a	-0.13242808
174	0xbd896c4d	-0.0671011
175	0x3e120450	0.14259458
176	0x3f1d03a7	0.613337
177	0xbefd3114	-0.49451506
178	0x3eae042d	0.3398756
179	0xbe0ab72d	-0.13546439
180	0x3f32326d	0.69608194
181	0xbf045fc9	-0.51708657
182	0x3e4c89f3	0.19974498
183	0xbeb61c13	-0.35568294
184	0xbd8cd590	-0.06876671
185	0x3ceeaed6	0.029136103
186	0x3ef72096	0.4826705
187	0xbe3ff71e	-0.18746611
188	0xbd82af75	-0.06381122
189	0xbe8391ac	-0.25697076
190	0x3f1aa88d	0.6041344
191	0x3ed882e0	0.4228735
192	0xbe528f18	-0.20562398
193	0xbdd5051a	-0.10401364
194	0xbf86169a	-1.0475647
195	0xbe7d9de4	-0.24767262
196	0x3e4f4226	0.20240077
197	0xbf070e22	-0.5275594
198	0xbf1067e3	-0.5640852
199	0xbf8e8d61	-1.1136895
200	0xbeea8c80	-0.45810318
201	0xbe8663a5	-0.26247898
202	0xbbcbdc19	-0.006221306
203	0xbd97d626	-0.074138924
204	0xbe41a16e	-0.18909237
205	0xbe1ddd4b	-0.15416448
206	0xbebfe2e2	-0.37477785
207	0x3eee5904	0.4655229
208	0xbe241cc9	-0.16026606
209	0xbf1531ad	-0.58278924
210	0xba47158e	-0.00075944595
211	0xba7c8276	-0.00096324773
212	0xbf4d2a5b	-0.80142754
213	0xbde25a57	-0.11052387
214	0xbe83fb2a	-0.2577756
215	0x3ea3674c	0.31914747
216	0x3f9d4a75	1.2288347
217	0xbc5aae03	-0.013347152
218	0xbe42f093	-0.19037084
219	0x3db8b002	0.09017946
220	0xbe98ac06	-0.29818743
221	0xbdaf8b3c	-0.08571479
222	0xbec33fca	-0.38134605
223	0xbef155c9	-0.4713576
224	0xbe14a76e	-0.14516994
225	0x3fb2f8ae	1.3982141
226	0xbf01de42	-0.50729764
227	0xbe85cd59	-0.2613323
228	0x3e247304	0.160595
229	0x3ebb9eae	0.366445
230	0xbf1d6233	-0.61477965
231	0x3db63b60	0.08898044
232	0xbd7069a3	-0.058694493
233	0xbdcd71bb	-0.10031458
234	0xbd17e8f0	-0.03708738
235	0x3f1fd5af	0.6243543
236	0xbe783942	-0.24240592
237	0xbe5b0192	-0.21387318
238	0xbe751e05	-0.23937233
239	0x3d137a91	0.03600556
240	0xbeafe922	-0.34357554
241	0x3c6a003d	0.014282283
242	0xbf0da374	-0.55327535
243	0xbf3f5e17	-0.74752945
244	0x3d13ae36	0.036054812
245	0xbea2c30c	-0.31789434
246	0xbe75d59c	-0.24007267
247	0xbf2f2b54	-0.6842549
248	0xbea96450	-0.33084345
249	0x3ee05b56	0.43819684
250	0xbb004590	-0.0019572712
251	0xbe60e7f7	-0.21963488
252	0xbe1d37f3	-0.15353374
253	0xbe1ee332	-0.15516356
254	0x3e69febe	0.22851083
255	0xbf3e5048	-0.7434125

bias_hh_l0 f4 [256]
0	0xbf1c6bea	-0.61102164
1	0xbf369e23	-0.7133505
2	0x3d8d3820	0.068954706
3	0xbf4e2941	-0.805317
4	0xbed45efc	-0.41478717
5	0xbe24751b	-0.16060297
6	0xbec5b9d3	-0.38618335
7	0xbe937943	-0.28803453
8	0xbf112baf	-0.5670728
9	0xbe21d3ae	-0.15803406
10	0xbf2c4091	-0.6728602
11	0xbeaa8fea	-0.33312923
12	0xbf442e45	-0.766331
13	0xbf52ccc6	-0.8234371
14	0x3edeeb0a	0.43538696
15	0xbee227c7	-0.44170973
16	0xbf07b8b5	-0.53016216
17	0xbb1cfff6	-0.0023956276
18	0xbf5a2816	-0.85217416
19	0xbef9fd81	-0.4882622
20	0x3de31a78	0.11089033
21	0xbf3b8dab	-0.73263043
22	0x3e0eec5b	0.1395735
23	0xbf19dcd5	-0.6010259
24	0xbf0564c6	-0.52106893
25	0xbef36f60	-0.4754591
26	0xbdb86832	-0.09004249
27	0xbeb1dec0	-0.34740257
28	0xbe78cb0c	-0.24296206
29	0x3ef566be	0.4792995
30	0xbf1e23a2	-0.6177312
31	0xbf117a3b	-0.56827134
32	0xbead044c	-0.3379234
33	0xbf5ba129	-0.85792786
34	0x3ec27423	0.3797923
35	0xbef877e2	-0.48528963
36	0xbe30c16c	-0.17261285
37	0xbeecef68	-0.46276402
38	0xbd258365	-0.04040851
39	0xbe9f1751	-0.31072477
40	0x3e57cc5d	0.21074052
41	0xbf5d13ed	-0.8635853
42	0xbcbae3b9	-0.022813665
43	0x3f92cbb6	1.1468418
44	0xbed49e37	-0.41526958
45	0xbf03b0f8	-0.5144191
46	0xbf46dbd0	-0.7767916
47	0xbf2decfe	-0.67939746
48	0xbf032d2c	-0.512408
49	0xbe9bd0bb	-0.30432686
50	0x3e86690c	0.2625202
51	0xbf392b75	-0.72331935
52	0xbe4d9b5e	-0.20078799
53	0xbe5b7994	-0.21433097
54	0xbf1169eb	-0.56802243
55	0xbea72cb9	-0.32651308
56	0xbef645c4	-0.48100102
57	0xbeaf8b9f	-0.3428621
58	0xbddad5a9	-0.10685284
59	0xbee23eaf	-0.4418845
60	0xbf36e445	-0.7144206
61	0xbf53b7cd	-0.8270233
62	0x3cfb3f9d	0.030669982
63	0xbe91221a	-0.2834633
64	0x3eac6b5a	0.33675653
65	0x3ddf0e69	0.108914204
66	0xbf49e628	-0.78866816
67	0xbe7329b5	-0.23746379
68	0x3d383ad9	0.044977996
69	0xbf844fb7	-1.0336827
70	0xbf749e5c	-0.9555414
71	0xbf8ecbbb	-1.1155924
72	0x3e23efc0	0.16009426
73	0xbf3bfbcb	-0.7343108
74	0xbf0a3d3c	-0.53999686
75	0xbee3eedd	-0.44518176
76	0xbf37c93c	-0.71791434
77	0xbf85e050	-1.045908
78	0xbfab3ebb	-1.3378519
79	0xbeab19c0	-0.33418083
80	0x3e8ed8ab	0.2789968
81	0xbf53bfe2	-0.82714665
82	0x3ec1f2e3	0.3788062
83	0x3ed91950	0.42402124
84	0xbf3b8f08	-0.73265123
85	0xbdb2e591	-0.087351926
86	0xbf248280	-0.6426163
87	0x3ee7a08f	0.45239684
88	0x3ebc2cdd	0.36752978
89	0x3ea4c276	0.32179612
90	0xbf37aa0b	-0.7174384
91	0xbdf73084	-0.120698005
92	0xbed68362	-0.41897112
93	0x3d3b4400	0.045719147
94	0xbe576f7b	-0.2103862
95	0xbf8e132d	-1.1099602
96	0xbf4c21f4	-0.7973931
97	0x3d95f5a6	0.07322244
98	0xbfd75f98	-1.6826048
99	0xbefa18d2	-0.4884706
100	0xbeba4c6c	-0.3638643
101	0xbee466eb	-0.4460977
102	0xbfd523a5	-1.6651503
103	0x3f483dde	0.782194
104	0xbf1fe076	-0.62451875
105	0xbee916f8	-0.45525336
106	0xbf08fe52	-0.5351306
107	0x3f0629c2	0.5240747
108	0xbe77938a	-0.24177375
109	0xbf2492ea	-0.64286673
110	0xbeb61985	-0.35566345
111	0xbf4c7b53	-0.7987568
112	0xbf26ddd7	-0.6518225
113	0xbf6bf589	-0.9217153
114	0xbfd6a27a	-1.6768334
115	0x3d596f2c	0.053084537
116	0xbf2812d1	-0.6565371
117	0xbeaf8eca	-0.34288627
118	0xbe1e62ca	-0.15467373
119	0xbec0d2a1	-0.37660697
120	0xbfadd076	-1.3579242
121	0xbf892b62	-1.0716364
122	0xbf074e87	-0.528542
123	0xbf2e3139	-0.6804386
124	0x3ebf21be	0.3733043
125	0xbf422d28	-0.7585015
126	0xbf3c418e	-0.7353753
127	0x3e5eab24	0.21744972
128	0xbd7acb48	-0.06122902
129	0xbdd26b5c	-0.102743834
130	0x3d5b63ea	0.053562082
131	0x3eaa2c4c	0.3323692
132	0xbeb9c87e	-0.36285776
133	0x3d9339e1	0.07188774
134	0xbe387084	-0.18011671
135	0x3e09c231	0.13452984
136	0x3e54ad16	0.20769152
137	0xbe911c7c	-0.28342044
138	0xbceba928	-0.028767183
139	0xbec641da	-0.38722116
140	0x3c0266d1	0.007959084
141	0xbe5d187b	-0.2159137
142	0xbe9ee83b	-0.31036553
143	0xbeee0e26	-0.4649517
144	0x3dbeefe8	0.09323102
145	0xbeda4973	-0.42634162
146	0xbe11aeef	-0.14226888
147	0xbe96c773	-0.29449043
148	0xbe723597	-0.23653255
149	0x3dc50118	0.09619349
150	0x3ecc3aeb	0.398887
151	0x3dc67563	0.096903585
152	0xbdfa1911	-0.12211812
153	0x3e773e90	0.2414496
154	0x3dfb5e9c	0.12273905
155	0x3f33fecd	0.7031067
156	0xbf81aa7a	-1.013015
157	0xbe70a7b5	-0.23501475
158	0xbf00bd56	-0.50288904
159	0xbef2538c	-0.47329366
160	0x3dd2c06e	0.10290609
161	0x3c74b1c1	0.014934958
162	0xbedadb9c	-0.42745674
163	0xbd934ae0	-0.07192016
164	0x3e4b53ef	0.19856237
165	0x3ef7a169	0.48365334
166	0xbdff4d22	-0.12465884
167	0xbceccc87	-0.02890612
168	0xbf14db57	-0.58147186
169	0xbe02ed18	-0.12785757
170	0x3ecfab89	0.40560558
171	0xbfe87c59	-1.8162948
172	0x3e2cae9f	0.16863488
173	0xbe148982	-0.1450558
174	0xbd86a80c	-0.06575021
175	0x3dffe724	0.124952585
176	0x3f2cfbcc	0.6757171
177	0xbf08e30d	-0.5347145
178	0x3e8afde8	0.2714684
179	0xbe76781e	-0.24069259
180	0x3f322623	0.6958944
181	0xbeae356c	-0.34025133
182	0x3d79b41a	0.060962774
183	0xbebec8e6	-0.37262648
184	0x3d319509	0.04335502
185	0x3d3ac27a	0.045595624
186	0x3f1c6e6d	0.61105996
187	0xbd92fdfc	-0.0717735
188	0x3d477e25	0.048704285
189	0xbeee6014	-0.46557677
190	0x3f04f6cb	0.51939076
191	0x3f16cb7f	0.5890426
192	0xbd5e0ebe	-0.054213278
193	0xbd7e23b0	-0.062045753
194	0xbf7f1077	-0.996345
195	0xbe723205	-0.23651893
196	0x3e89c016	0.26904362
197	0xbf069592	-0.52571976
198	0xbeedd37a	-0.46450406
199	0xbf928889	-1.1447917
200	0xbefe9176	-0.49720353
201	0xbe7da74b	-0.24770848
202	0x3d99e273	0.07513895
203	0xbd5b7046	-0.05357387
204	0xbc9991d3	-0.018746292
205	0xbe915a2d	-0.2838911
206	0xbe8e5336	-0.2779786
207	0x3eb81e78	0.35960746
208	0xbe3e2480	-0.18568611
209	0xbf16223f	-0.58646005
210	0x3e0803c2	0.13282683
211	0x3e4ae16f	0.19812559
212	0xbf1882d7	-0.59574646
213	0xbe766ece	-0.24065706
214	0xbe98e909	-0.29865292
215	0x3e14b1a0	0.14520884
216	0x3f98df38	1.1943121
217	0xbe3453ef	-0.17610143
218	0xbe97bb97	-0.29635307
219	0x3cdb6223	0.026780194
220	0xbeb58103	-0.3544999
221	0xbdae014f	-0.08496343
222	0xbede6181	-0.43433765
223	0xbf068841	-0.52551657
224	0x3d384bcd	0.044994164
225	0x3fab36e3	1.3376125
226	0xbf1c7d6f	-0.61128896
227	0xbe160b0d	-0.14652653
228	0x3e2e43c3	0.17018037
229	0x3ecc4427	0.39895746
230	0xbecc085b	-0.39850125
231	0x3d9084de	0.070565924
232	0xbd8772e5	-0.06613711
233	0xbde0e4b4	-0.10981122
234	0xbe7a6105	-0.24451073
235	0x3f18d874	0.5970528
236	0xbe748781	-0.23879816
237	0xbda72fee	-0.08163439
238	0xbde27a33	-0.11058464
239	0x3e1eff77	0.1552714
240	0xbec22c68	-0.37924504
241	0xbd7e39de	-0.062066905
242	0xbebccb7e	-0.36874002
243	0xbf4fa66d	-0.8111332
244	0x3c082d9d	0.008311656
245	0xbe6362ac	-0.22205609
246	0xbe673fdf	-0.22582959
247	0xbf356dc8	-0.7087064
248	0xbee9aa2a	-0.45637637
249	0x3eb77f42	0.35839278
250	0xbdc3aa96	-0.09554021
251	0xbeb05f81	-0.34447864
252	0xbe2529c3	-0.16129212
253	0xbdc85638	-0.0978207
254	0x3e780f8f	0.24224685
255	0xbf36ab5e	-0.71355236
