deploy/deploy_mujoco/policy.onnx (onnx, 125328 bytes, 6 tensors)

hidden_state f4 [1, 1, 64]
000000 60 26 33 37 a5 65 80 3e 78 5f 37 3f 46 60 22 3f
       1.0678166e-05 0.2507755 0.7163005 0.6342815
000010 e5 a4 25 be 2f 34 c2 36 60 9e 39 3e cb d6 40 bf
       -0.16176184 5.7877255e-06 0.18126822 -0.7532775
000020 b8 be fd be f8 fb 6b b6 34 a4 dc 3d 1a 25 cb 3e
       -0.4955957 -3.5164394e-06 0.10773507 0.39676744
000030 06 cd 97 38 9d ea 61 bb 52 2d 46 3c 1b fd 35 3f
       7.23843e-05 -0.0034472116 0.012095766 0.71089333
000040 e3 53 c3 3d 1a 16 8d 3a 4a b2 10 3e c0 4e eb 3e
       0.095374845 0.0010764033 0.14130512 0.4595852
000050 b2 e6 24 b7 d3 e3 a6 bb 4b 6d 16 3e 08 a8 3f bf
       -9.828875e-06 -0.0050930767 0.1469013 -0.7486577
000060 0b 18 80 3d 1f d6 51 3e 04 47 8b 3b 0f 2b 5c be
       0.06254586 0.20491837 0.004250409 -0.215008
000070 48 66 17 bb 84 b3 9d b4 5e 67 d2 b6 54 a0 3c 3f
       -0.0023101736 -2.9374144e-07 -6.270521e-06 0.7368214
000080 d8 25 01 bf 67 95 12 39 66 2f 2e 3f b6 de 55 3d
       -0.5044837 0.00013979302 0.68041074 0.052214347
000090 b1 d0 49 3e 4d b3 a0 bc 10 c4 00 3e 6c 49 b7 ba
       0.19708516 -0.019616747 0.12574792 -0.0013983673
0000a0 1f e8 7d 3c ee bd 35 bd 5a 4f 88 bb 2b bf e4 b3
       0.0154972365 -0.044370584 -0.00415985 -1.06518506e-07
0000b0 ed 6b 42 3f a9 1f 36 3d 99 bc 67 3e 8a d6 62 3d
       0.7594593 0.044463787 0.22630538 0.05538038
0000c0 c8 b3 1b 3f 5c 5c d2 3e 6c d4 d5 3c b8 4b 40 bf
       0.608212 0.4108609 0.026102267 -0.7511554
0000d0 4f 77 08 bd a1 82 90 be d7 ea 28 3c 9f 17 42 3f
       -0.033316907 -0.28224662 0.010309896 0.7581729
0000e0 d8 a5 96 39 d9 9d 31 3d 7d 2e ed bd 8b 27 8e 3b
       0.00028733793 0.043363426 -0.115811326 0.00433821
0000f0 31 c0 20 3f 7b 01 39 3a 76 d1 42 bf 54 d3 51 3e
       0.6279326 0.00070574105 -0.7610086 0.20490772

cell_state f4 [1, 1, 64]
000000 5e 7d ed 39 36 9b a6 3e 72 33 78 3f 48 95 71 3f
       0.00045297568 0.32540292 0.969535 0.9436841
000010 e0 63 4e bf 6d 1e 2f 3b f0 50 c6 3e 13 b9 7b bf
       -0.8062115 0.0026721016 0.38733625 -0.98329276
000020 cc fc 0c bf 1d 3c 10 bc 77 3f f3 3d 5a e1 64 3f
       -0.5507324 -0.008803395 0.11877339 0.8940636
000030 9a 21 90 3b 2e 35 2b be dd d1 f7 3d a0 74 64 3f
       0.004398537 -0.16719505 0.12100575 0.89240456
000040 ec f2 c4 3d 69 91 5b 3d a5 a7 13 3e 88 ed 77 3f
       0.09616646 0.05360547 0.1441942 0.9684682
000050 8d da 36 bb c8 ed 19 be 1b 7e 18 3e 49 77 78 bf
       -0.0027901263 -0.15032113 0.14891855 -0.97057015
000060 06 b8 43 3f d3 3d 59 3e 3c 82 54 3f 14 80 8c be
       0.7645267 0.2121499 0.8301122 -0.27441466
000070 a4 d8 39 be 02 09 9b b9 96 5c a2 bb f0 ba 75 3f
       -0.18149048 -0.00029570615 -0.0049548848 0.9598837
000080 46 fc 39 bf 2e 16 2d 39 4c 3f 7f 3f 61 b3 58 3d
       -0.72650564 0.00016506828 0.9970596 0.052905444
000090 09 43 7c 3e 0d 1c 58 bf 80 3d 04 3e de e3 0c be
       0.24634947 -0.844178 0.12914085 -0.137588
0000a0 f1 d2 0d 3e b2 a8 74 bf de 1c dc bc b7 c9 81 bb
       0.13849999 -0.9556991 -0.026869234 -0.003960814
0000b0 39 ba 7e 3f 4e a0 58 3d 60 f1 6d 3e 1a 50 63 3d
       0.99502903 0.052887253 0.23236609 0.055496313
0000c0 2f 6e 36 3f 1f 0a f8 3e 0b 08 94 3e 2b 54 7c bf
       0.71261877 0.48445222 0.28912386 -0.9856593
0000d0 86 f6 07 bf 8e 43 1c bf 8a 9d 3c 3e 1d 17 7e 3f
       -0.5311054 -0.6104058 0.18419471 0.9925402
0000e0 80 7b 16 3b 94 76 9f 3d 09 a8 1f be 12 f1 7a 3f
       0.0022961795 0.07786289 -0.15591444 0.98024094
0000f0 21 c0 3f 3f f8 96 c0 3a 2a a5 7f bf 80 07 10 3f
       0.7490254 0.001469343 -0.99861395 0.56261444

actor.0.weight f4 [32, 64]
000000 6a 21 9a bf 7a 9c 7b 3f df c1 ef 3e b5 8f 21 3e
       -1.2041447 0.9828564 0.468276 0.15777476
000010 42 1c 6e 3f 74 9d 1d 3e a2 76 3f bf c3 fc 7f bc
       0.9301187 0.15392095 -0.74790394 -0.015624228
000020 15 0e 6b bf c3 0f b8 3d 31 0d 78 3e 8c b3 c4 3e
       -0.9181836 0.08987381 0.24223782 0.38418233
000030 32 49 2e 3f 23 ab 03 3f f9 75 3d 3e 0c aa c7 be
       0.6808044 0.5143301 0.18502034 -0.38996923
000040 40 3e 83 be 42 30 57 bf e5 33 b8 bf 1e 46 8b 3c
       -0.2563343 -0.8405801 -1.4390837 0.017001208
000050 af 49 00 3f 32 d4 5a be ab d6 22 3e b7 fe 72 3e
       0.5011243 -0.21370009 0.15902202 0.23729979
000060 31 a3 d0 bc 69 bb 1c 3f e3 a4 16 3f 16 74 27 be
       -0.02546844 0.61223465 0.5884535 -0.16352877
000070 1c 5d 5c 3e a4 f8 1c bf 66 42 f2 3e fb d9 41 3d
       0.21519893 -0.61316895 0.47316283 0.047327023
000080 66 2c ba 3f 44 90 8f 3f 23 3e 11 3f 6e 79 77 be
       1.4544799 1.1215901 0.5673544 -0.24167415
000090 f9 82 bb be 72 ac 55 3f e5 7e 1a bd e8 a2 06 be
       -0.36623362 0.83466256 -0.037718672 -0.13148081
0000a0 4e 7e 42 bd cd e7 93 3e b9 a7 18 be a1 7c 47 bf
       -0.047483735 0.28887787 -0.14907731 -0.77924544
0000b0 4a 2c 9b 3d c8 17 51 be b8 28 59 3f 4f a4 3e bf
       0.07576807 -0.20419228 0.84827757 -0.74469465
0000c0 1f 30 4e bd ff 43 44 be 74 e6 55 3f f4 16 ec 3e
       -0.05033886 -0.19166563 0.8355477 0.46111262
0000d0 ef 03 da be 00 b0 ac be fd 4a 0c 3f b5 92 bd be
       -0.42581126 -0.33728027 0.54801923 -0.3702599
0000e0 1c e7 d6 3e a1 02 27 3f 89 54 70 bf 09 dd 0c bf
       0.41973197 0.65238386 -0.9387899 -0.5502477
0000f0 f9 10 6a 3c ed 85 e7 bd 03 de e6 3e a3 bc 63 3f
       0.014286273 -0.11304841 0.45091256 0.8895971
000100 23 84 02 bf 88 c5 c1 be ae 33 eb bd 11 89 89 3d
       -0.50982875 -0.37846017 -0.114844665 0.067155965
000110 b1 e6 38 3f 35 4c a6 be 2c 0d 0a bb 27 ed a0 bd
       0.7222701 -0.32480016 -0.002106498 -0.07857733
000120 e9 5e 19 3f 6c aa 1b bc 97 52 ce be 9f d5 14 3f
       0.59910446 -0.009501081 -0.40297386 0.5813846
000130 ef 07 b5 be 54 57 cf be 5e 26 ef 3d e1 03 19 be
       -0.35357615 -0.40496314 0.1167724 -0.14942886
000140 df b8 60 be af 0a d6 be 52 a9 31 be 5c 8e 12 be
       -0.21945523 -0.41805026 -0.17349747 -0.14312118
000150 20 18 3b bf 3e 6c 28 bd 91 49 16 3e 7c 7a ba bc
       -0.73083687 -0.041118853 0.14676501 -0.022763483
000160 d2 a7 91 be 33 42 28 bd f1 9b 28 3e d0 cf 1f bf
       -0.2844835 -0.041078757 0.16465737 -0.6242647
000170 fe 17 ea be 34 49 51 be 75 8b c4 3e b9 e9 c3 be
       -0.4572143 -0.20438081 0.38387647 -0.38264254
000180 b7 8d 8c bc 64 19 11 3f 15 a0 2a be 0b 14 63 bd
       -0.017157419 0.5667937 -0.16662629 -0.055439036
000190 d0 7e 85 be a7 f8 0c be 5f b9 82 be f1 d0 33 be
       -0.26073313 -0.13766728 -0.25532052 -0.17560174
0001a0 85 68 39 3e eb 29 ac be f5 12 2d 3e 07 91 c7 bd
       0.18106277 -0.3362573 0.16901763 -0.09744459
0001b0 7a 26 37 3e 27 19 45 bd b1 1b 54 be 42 f6 33 be
       0.17885771 -0.04811969 -0.20713688 -0.17574409
0001c0 fd 01 d8 3e 72 57 ce 3c 21 2c 78 be 70 a8 15 be
       0.42189017 0.025188182 -0.24235584 -0.14615035
0001d0 3c 2b 37 3f 64 22 63 bc cf a7 2f be d1 43 e8 3e
       0.71550345 -0.01386318 -0.17153858 0.4536424
0001e0 6e 23 b2 bc ea b7 91 bd 40 21 33 3e 18 a5 93 bd
       -0.02174541 -0.07115157 0.17493153 -0.072092235
0001f0 5f 76 c8 be aa b0 ec bc cb f9 89 3e d8 16 85 3e
       -0.3915281 -0.028892834 0.2694839 0.2599399
000200 fa 56 3f 3e 41 b0 7f 3d de 2a 62 3d 19 99 22 be
       0.18685523 0.06242395 0.055216663 -0.15878715
000210 81 b4 50 be 87 36 20 bf c7 45 07 bd 00 cb 82 bd
       -0.20381357 -0.625832 -0.03302553 -0.063863754
000220 ba 1e 63 3e 84 a8 77 3e a2 d5 e2 3d 5c fd 68 3e
       0.2217969 0.24185377 0.110759035 0.22752899
000230 c5 79 73 be e6 ea 0c bf e8 ea dc 3b 7a b4 82 3e
       -0.2377692 -0.55045927 0.00674187 0.25528318
000240 31 0b 71 3e e6 a6 b2 3d 27 b7 36 3c 30 bc e6 3e
       0.23539425 0.087232396 0.011152065 0.4506545
000250 f9 e2 9b ba 10 b6 a1 3e 4b d5 6b bd a9 6b 4a 3d
       -0.0011893205 0.31584215 -0.05757646 0.04941908
000260 6c 46 06 bf 04 86 a4 3e 09 10 e3 3e 19 a2 64 3e
       -0.52451205 0.32133496 0.4434817 0.2232746
000270 82 d7 c6 3e 01 ab 67 be e1 36 02 bf 2d a3 95 be
       0.38836294 -0.22623827 -0.5086499 -0.29226056
000280 b1 ed 06 3f e1 d3 72 be 85 4a 1d be 2e 78 e6 3e
       0.5270644 -0.23713638 -0.15360458 0.45013565
000290 d6 cd ee 3e ae ab 01 be 48 b9 4f 3d ee d4 98 3c
       0.46641415 -0.12663147 0.050713807 0.01865622
0002a0 2a 22 d0 3e fd 69 95 3e f8 14 a2 be fb a9 ff bd
       0.40651065 0.29182425 -0.31656623 -0.12483593
0002b0 9c 6f 02 3d 03 64 ae 3d dc 56 64 be 8e b4 f8 3e
       0.03184472 0.085151695 -0.22298759 0.48575252
0002c0 3a 28 bd be 64 10 aa be 63 35 01 3d 56 22 23 be
       -0.36944753 -0.3321563 0.031545054 -0.15931067
0002d0 87 b1 c3 be 60 46 d1 3e fc 84 56 bf bf 41 ac be
       -0.3822138 0.40874004 -0.8379667 -0.3364391
0002e0 f0 d5 0f 3e ba ff ce 3d bd 6f 63 be 0d eb eb 3e
       0.14046454 0.1010737 -0.22210594 0.46077767
0002f0 e7 43 5c 3e 64 61 13 be ab 70 7d bd 65 57 ab be
       0.21510278 -0.1439262 -0.061875027 -0.33465114
000300 af 61 72 be f6 b1 d9 3d 3b 9c ef 3d 74 78 cf bd
       -0.23670076 0.106296465 0.116997205 -0.101303965
000310 52 8e 8a 3e 49 d2 1d 3e 8d 61 1c 3e d2 0b 04 3f
       0.27061707 0.15412249 0.15271588 0.51580536
000320 90 50 90 3e 7d 6e b7 3d 57 23 ce be 6e 74 12 3e
       0.28186464 0.08956621 -0.40261337 0.14302227
000330 28 ce 4c bf 30 c9 20 be 47 0d 55 be c4 23 04 bf
       -0.8000207 -0.15701747 -0.20805846 -0.51617074
000340 17 4b 7e 3e 68 14 4e be 52 ba ea 3d 5d 02 3e bc
       0.24833332 -0.20124972 0.11461319 -0.011597243
000350 1d 08 db 3e a0 1d 95 bb ce d3 32 be b2 7a 18 3e
       0.42779627 -0.0045506507 -0.1746361 0.14890555
000360 41 c3 0e 3e 23 e0 ff 3e 68 fd e8 bd 96 8a b7 be
       0.13941671 0.4997569 -0.113764584 -0.3584792
000370 37 7d 96 be b8 d2 1a 3d 3c 2b ae 3f 8b e3 ee 3e
       -0.29392406 0.037798613 1.3606944 0.46657977
000380 1d 13 ce 3d 34 53 51 3e cc d7 03 bf b4 aa 1e 3f
       0.10062239 0.20441896 -0.51501155 0.6197922
000390 c6 a1 0b 3f 9d 49 fe 3e 3d 51 02 3e 3e 6f c0 be
       0.5454372 0.49665537 0.12726302 -0.3758487
0003a0 32 8a 01 3e c0 43 86 3d 1f 2a 28 3e f8 1b ac be
       0.12650374 0.06555891 0.16422318 -0.33615088
0003b0 d0 b2 ef be 75 e0 6a 3e 9c 17 c3 be a1 0c 6b be
       -0.4681611 0.22937186 -0.3810395 -0.22954036
0003c0 0c cd a0 3d 08 46 5b be 43 41 b6 3c f6 b0 a2 3e
       0.078516096 -0.21413434 0.022247916 0.31775635
0003d0 c9 59 04 3e c7 d5 c9 3b 95 62 b3 3e 56 69 f4 3d
       0.12924875 0.0061595174 0.3503615 0.11934154
0003e0 1c a7 b1 3e 86 18 8c be 29 77 e8 be c3 60 64 be
       0.34697807 -0.2736246 -0.45403412 -0.22302537
0003f0 09 cb 3a 3e e3 80 76 bd 24 c5 c8 3e 79 d0 70 3e
       0.18241514 -0.06018151 0.39212906 0.23517026

actor.0.bias f4 [32]
000000 7a d1 1c be 35 d2 f6 bc 3e 96 ca bd 44 e7 ce 3d
       -0.15314284 -0.030129531 -0.09891938 0.10102704
000010 64 83 40 bd 82 20 4c 3d 92 e8 a3 bd 70 44 24 bd
       -0.047000304 0.04983569 -0.08003344 -0.04010433
000020 b5 fa 73 3d 51 72 29 be 97 39 62 3c 1a 30 25 be
       0.059565265 -0.16547514 0.013807676 -0.1613163
000030 5e db dd bd 24 e0 34 be d7 58 07 3b cb 43 17 bd
       -0.108328566 -0.17663628 0.0020652318 -0.036929887
000040 6a cd 0b be de 7c 9a bc 5b 2a 64 bd ce 6f 47 be
       -0.13652578 -0.01885837 -0.055704456 -0.19476244
000050 b2 7e 41 be 9e fa 57 3d 6c cc 8b bd e5 62 73 be
       -0.18895987 0.05272924 -0.068261 -0.23768194
000060 5e 40 b7 3d 0d fd aa bd 31 ee 9c 3c 04 8e 19 be
       0.08947824 -0.08349047 0.019156547 -0.14995581
000070 51 15 20 be 02 5e 1f 3e 52 42 59 bd b0 41 f2 3c
       -0.15633132 0.15563205 -0.053041764 0.029572338

actor.2.weight f4 [12, 32]
000000 72 e2 0e 3e 1b 93 2d be 77 f6 4d 3c 7b bd 05 be
       0.1395357 -0.16950648 0.012570969 -0.13060562
000010 56 0f d7 3d 63 d5 a3 3e db 05 e0 be 1c 33 0e bb
       0.10500972 0.3199874 -0.43754467 -0.0021697944
000020 46 1c ec be 01 da 11 3d 16 66 81 3e ea 09 d5 3c
       -0.4611532 0.035608295 0.25273198 0.026005704
000030 27 21 f3 bd 10 86 9c bd d1 c1 d0 bd 8a d6 02 be
       -0.11871558 -0.07642758 -0.101932175 -0.12777153
000040 4e 2b a4 bd f4 75 c8 be 26 22 7e 3e c6 94 80 be
       -0.08016072 -0.3915249 0.24817714 -0.25113505
000050 df 88 b9 bd 83 98 b9 bc 03 a6 31 bb 6f 46 56 3e
       -0.09059309 -0.022655731 -0.0027107007 0.20925306
000060 ab 8f 5a bd 94 24 b4 3e 2c 3a 14 be b1 80 2a 3e
       -0.05335967 0.35184157 -0.14475316 0.16650654
000070 2e c4 9d bc 6b 66 33 be b2 57 a3 3e b1 24 8b bd
       -0.019258585 -0.17519538 0.31902844 -0.06794108
000080 71 4d 7b be 8d d9 77 3e 34 c4 34 3d a6 d3 24 bd
       -0.2454126 0.24204083 0.044132426 -0.040240906
000090 c8 b7 df 3e 30 b0 bb 3b 02 22 d5 3d 4e c9 fe 3c
       0.436949 0.0057277903 0.10406877 0.031101849
0000a0 40 68 54 be 9e b0 2e 3e 09 ee a3 3e a7 dd 56 be
       -0.20742893 0.17059562 0.32017544 -0.20982991
0000b0 23 d0 91 be c8 cd ac be 51 d9 32 3d d2 e0 9f 3e
       -0.28479108 -0.3375075 0.04366428 0.31226212
0000c0 cd 50 22 be d0 3e 72 3e a1 12 03 3e c0 af f7 bc
       -0.15851136 0.23656774 0.12800075 -0.030235171
0000d0 99 e3 a6 be cf d4 c5 3e e5 aa 6b 3e 6f 39 b9 be
       -0.32595518 0.38638923 0.2301441 -0.3617663
0000e0 71 fc c3 3e 18 6e 92 3e 1d ba a7 3e 1c 76 f5 bc
       0.38278535 0.2859962 0.3275918 -0.029963546
0000f0 27 3f 9a bc 44 b4 7e 3e c2 34 65 3e 53 45 85 be
       -0.018828942 0.24873453 0.22383407 -0.26029453
000100 d7 0f b3 bd d8 83 02 3e 63 9d 52 3d c9 d9 c7 3d
       -0.087432556 0.12745607 0.051419627 0.09758336
000110 da 7c bd bd 59 2f b3 bd 56 60 11 be f6 4d a0 bd
       -0.09252329 -0.08749265 -0.14196905 -0.0782737
000120 45 1f a9 bd 38 12 b9 bd a4 9e 30 3d 65 9f 4b 3e
       -0.08257917 -0.09036678 0.04312004 0.19885023
000130 9b 3a 93 be ea 7d 45 bd d3 f0 e9 3d fb b5 2e be
       -0.2875565 -0.048215784 0.11422887 -0.17061608
000140 d2 a1 89 3c 38 1b a8 bd 13 26 57 bc c2 0a 13 3e
       0.016800795 -0.082083166 -0.013131636 0.14359573
000150 50 2a 3c 3e f7 ab 72 be f3 dc 38 3d 72 90 70 be
       0.18375516 -0.23698412 0.04513259 -0.23492602
000160 4e df cf bd 94 8d 93 3d cd 7e 69 3d 9f 23 81 bd
       -0.10150014 0.07204738 0.057005692 -0.06305622
000170 af 06 4f 3d 8d 85 fa bc cf b5 61 3d 2d e6 81 3c
       0.050543483 -0.03058126 0.055105027 0.015856827
000180 77 5e 34 bd ed 90 56 3d f5 31 61 3e 5c c2 b3 bd
       -0.0440354 0.052384306 0.21991713 -0.087773055
000190 d2 ce 63 3e 5b 28 21 be 11 6a e4 3d 0d 03 22 3f
       0.22246864 -0.1573805 0.11153043 0.63285905
0001a0 c0 c5 b5 3d 41 3c a0 be 40 40 2a be 69 65 9d be
       0.088756084 -0.3129597 -0.16626072 -0.30741432
0001b0 09 7c 6f 3d bf d7 b7 bd 0f da 97 3e 3e dd c0 bb
       0.0584679 -0.08976697 0.29658553 -0.005885749
0001c0 09 66 96 3d 97 75 92 bd bf f7 6a 3e 60 83 6e 3e
       0.073436804 -0.07151335 0.2294607 0.23292303
0001d0 9e 78 87 bc 4f 33 82 bd 59 c2 9f bd 14 f1 71 3e
       -0.016537007 -0.063574426 -0.07800741 0.2362712
0001e0 73 10 bf bd 23 17 9b 3d 09 2f b5 be 3a 6a a4 bd
       -0.09329309 0.07572772 -0.35387447 -0.080280736
0001f0 85 5e 1b 3e ae 5d 4c 3e ac 05 c7 3d 04 45 d2 bd
       0.15172775 0.19957611 0.09717879 -0.1026707
000200 2c c6 8e 3d f8 19 eb 3e 19 db 7a be 8e 8e 39 3e
       0.06971392 0.4591825 -0.24497642 0.18120787
000210 bf 56 31 3e bc 8c 50 3e 83 b1 80 bd 61 8b bf bd
       0.17318247 0.20366186 -0.06283858 -0.09352756
000220 94 db 47 bd b2 5c 17 bd f0 dc bb 3c 22 e1 47 be
       -0.04879339 -0.036953636 0.0229325 -0.19519475
000230 50 3c 03 bf cc 73 9b 3e 43 83 04 bf 70 c9 ad 3e
       -0.51263905 0.30361784 -0.5176279 0.33942747
000240 7d 57 99 3e 6c a8 1f 3f 3c 32 40 be d3 61 02 bd
       0.2994956 0.62366366 -0.18769163 -0.031831574
000250 68 0c a7 3e 2f cf 1c be c9 3e 18 be a4 74 05 3f
       0.32626653 -0.1531341 -0.148677 0.52131104
000260 05 73 f9 be 8b 85 90 3f db 35 08 bf f4 ab 87 3e
       -0.48720565 1.1290754 -0.53207177 0.26498377
000270 bf 77 b3 3d 0c 9a 2f 3e 02 36 90 3d 2b 03 b1 be
       0.08763074 0.17148608 0.07041551 -0.3457273
000280 44 a6 01 be 2b f8 6a be 9c 60 03 bd a0 e3 1f 3f
       -0.12661082 -0.22946231 -0.032074556 0.62456703
000290 c4 9a ac 3e ae 98 d8 3e 6a c6 03 3f 6e 58 73 3d
       0.33711827 0.42303985 0.5147463 0.059410505
0002a0 c8 00 c8 3e 6c e9 4e 3e 8c 0e 8b 3c 8c 7d 63 3d
       0.39063096 0.20206231 0.01697471 0.055539653
0002b0 ac 01 b2 be c1 5d f9 3d e8 63 cd be fb 07 d5 be
       -0.347669 0.12176085 -0.40115285 -0.4160765
0002c0 d5 58 ac be 2d 28 09 3e ba 83 7c 3e ce 25 ae bc
       -0.33661523 0.13394232 0.24659625 -0.021258261
0002d0 03 27 ec bd 97 25 49 3e 47 c6 d4 be 52 7e 96 be
       -0.115308784 0.19643246 -0.41557524 -0.2939325
0002e0 8e f1 8b 3d 7c fb 3a 3c 04 b8 8a be 73 32 49 3e
       0.06833182 0.011412498 -0.27093518 0.19648151
0002f0 ef e7 6f 3d 1d 15 1a bd b2 c2 7d 3e ea 86 9b bd
       0.0585708 -0.03761779 0.24781302 -0.07594092
000300 99 39 2d be f2 82 85 3e 50 3b 81 be f4 b9 96 bb
       -0.16916503 0.26076466 -0.25240564 -0.004599804
000310 07 f3 8f be 63 73 38 be 4a 12 7d 3e 81 63 90 be
       -0.28115103 -0.18012767 0.24714008 -0.28200915
000320 be e1 66 3e 6c 11 a7 3d 38 12 91 be a1 f3 5e be
       0.22547051 0.0815762 -0.28334212 -0.21772625
000330 8c 09 72 be 04 fd 60 3e 5c 26 b5 3e 0f a4 a6 3e
       -0.23636454 0.21971518 0.35380828 0.32547042
000340 a4 e0 5c be cf 57 d3 bd af 1b 23 3e 8b e9 71 be
       -0.21570069 -0.103194825 0.15928529 -0.23624246
000350 a0 ef 86 3e 9a 4b 50 3e 17 cb 2e 3e ed a1 e3 3d
       0.26354694 0.2034134 0.1706966 0.11114869
000360 d9 4c bb 3d ae 86 c8 be cc 4f 60 bc 9f 2d ab 3b
       0.09145517 -0.39165252 -0.0136909 0.0052239443
000370 6a 14 88 3d 6c 05 bc 3d 76 51 1e 3e e3 a4 2c 3e
       0.06644519 0.09180722 0.15460762 0.16859774
000380 1d 6b 58 3e a4 01 6b bd 3c 16 f4 3c b3 ce 6c be
       0.2113461 -0.05737461 0.029795758 -0.23125724
000390 f4 f3 c7 3d 15 0e 2f 3d 8d 48 17 be f4 97 9e be
       0.09763327 0.04273804 -0.1477377 -0.30975306
0003a0 62 3e 0f 3e 44 b9 2a 3b 16 43 2a bf 06 aa 4d 3d
       0.13988641 0.0026050368 -0.66508615 0.050210975
0003b0 53 42 1e 3c ee cf fa bc ca 78 9d be 5a 56 9a bd
       0.009659368 -0.030616727 -0.30756217 -0.075360015
0003c0 57 16 51 be f0 7c 55 be e7 ec 0b bd ee 4c 8a 3e
       -0.20418678 -0.20848441 -0.034161475 0.27011818
0003d0 44 45 6b 3e 37 18 1e be f1 46 59 3e 53 64 bc bd
       0.22975641 -0.15438925 0.21218468 -0.09198823
0003e0 17 66 5d 3d 05 2a b4 bc a1 45 73 be af 87 c0 3e
       0.05405244 -0.021992693 -0.2375703 0.37603518
0003f0 4e 81 80 3e 93 62 f2 be db 32 c8 bd 67 5b 02 bf
       0.25098652 -0.4734083 -0.09775325 -0.5092072

actor.2.bias f4 [12]
000000 ba 2f bc bc 1b dc a9 3d af ec c2 bd 06 9b ca 3d
       -0.022971977 0.08293935 -0.095178 0.098928496
000010 df bd 66 3e a5 7f 3f 3d 94 c4 91 be b0 a5 60 be
       0.22533368 0.04675259 -0.2847029 -0.21938205
000020 1f cc f3 3d 47 3f 63 3e 8c 69 ca 3e 15 60 84 bd
       0.119041674 0.22192107 0.3953365 -0.06463639
